IAT_high/IAT_mmdetection/LOL_pretrain.pth (torch, 427160 bytes, 132 tensors)

local_net.conv1.weight f4 [16, 3, 3, 3]
0	0x3d500345	0.050784368
1	0x3d8f95aa	0.07010968
2	0x3d0f2657	0.034948673
3	0xbbe61c5e	-0.0070224246
4	0x3dd954b6	0.106118605
5	0x3d4508f2	0.048104234
6	0xbc991552	-0.018686924
7	0xbcae1652	-0.021250878
8	0xbc064fc8	-0.008197732
9	0xbc94d3c9	-0.018167393
10	0xbdd9f306	-0.10642056
11	0xbcbb070e	-0.022830512
12	0xbc88f24e	-0.016717102
13	0xbb607137	-0.0034247169
14	0x3cb01657	0.021495027
15	0xbd8afd38	-0.06786579
16	0x3c4a883a	0.0123615805
17	0x3dd767d4	0.105178505
18	0xbd53407b	-0.051575165
19	0xbdc70db1	-0.09719408
20	0x3ca99c27	0.020704342
21	0xbe03f9ca	-0.12888256
22	0xbe0da6c3	-0.13833146
23	0x3df44fa2	0.11929251
24	0xbde01122	-0.10940768
25	0x3d1b2c99	0.03788433
26	0x3d5e7f77	0.05432078
27	0xbd6366d0	-0.05551797
28	0x3e4d6aed	0.2006032
29	0x3e09206a	0.13391271
30	0xbd4c79a2	-0.049920686
31	0xbcdb2685	-0.026751766
32	0x3e317e5f	0.17333363
33	0x3cae9068	0.021309093
34	0x3d6eee77	0.058332887
35	0x3e16cea8	0.1472727
36	0x3e218e3e	0.15776917
37	0x3d694f9c	0.056960687
38	0x3d8da665	0.06916503
39	0x3e2250e0	0.15851164
40	0x3d91a4ff	0.07111549
41	0xbdec6c6a	-0.11544116
42	0x3cb18ec9	0.02167453
43	0xbe28a7fe	-0.16470334
44	0xbc94d981	-0.01817012
45	0x3d866048	0.06561333
46	0xbdb98d43	-0.09060147
47	0x3dc6caec	0.09706673
48	0xbdadd154	-0.08487192
49	0xbdbcd7d8	-0.092208564
50	0x3d5a1b77	0.05324885
51	0x3db3df94	0.087828785
52	0xbabbb5a7	-0.0014321104
53	0x3d09f94d	0.033685017
54	0xbd37169e	-0.044699304
55	0x3e0e0be9	0.13871731
56	0xbdbe65bb	-0.09296747
57	0xbdfc4a78	-0.12318891
58	0xbe1bbf87	-0.1520978
59	0xbd85c556	-0.065317795
60	0xbd5a0092	-0.0532232
61	0x3c00608e	0.00783552
62	0xbd357e6d	-0.044310022
63	0x3e156c2d	0.14592047
64	0x3d95a036	0.073059484
65	0xbd7f12f9	-0.062273953
66	0xbd89c234	-0.067264944
67	0x3d220dbf	0.03956389
68	0x3df57e62	0.11986996
69	0xbd5c6b9e	-0.05381357
70	0xbd0e0621	-0.034673814
71	0x3d933409	0.07187659
72	0xbe2d9b4a	-0.1695377
73	0xbe25564b	-0.161462
74	0x3d808c07	0.06276708
75	0xbd2c1fdf	-0.042022582
76	0xbe112399	-0.14173736
77	0x3da1bfa4	0.07897881
78	0xbde1c0a1	-0.11023069
79	0xbe1ca061	-0.15295555
80	0xbe44b50e	-0.19209692
81	0x3d9ee6b2	0.077588454
82	0x3d90227b	0.07037827
83	0xbdbdd398	-0.09268874
84	0x3d88ad65	0.066736974
85	0x3ca88066	0.020569038
86	0x3da36410	0.0797807
87	0x3e23ede2	0.16008714
88	0x3c4f8ea8	0.012668289
89	0x39e33abe	0.0004334058
90	0x3dd2360b	0.10264214
91	0xbdb1033d	-0.08643196
92	0x3d49d0f3	0.049271535
93	0xbdb9be09	-0.090694495
94	0xbd2fff17	-0.042967882
95	0xbdbab01a	-0.0911562
96	0x3de1f6a1	0.11033369
97	0xbd28ec5a	-0.041241027
98	0x3df32e64	0.11874083
99	0x3e2b452a	0.16725603
100	0x3e04d29f	0.1297097
101	0x3d71839a	0.058963396
102	0xbd3877d8	-0.045036167
103	0x3d80697f	0.06270122
104	0x39f46923	0.0004661764
105	0x3d9eeab4	0.0775961
106	0x3d110614	0.035406187
107	0x3dae484a	0.08509882
108	0xbd39a154	-0.04531987
109	0x3d07e21c	0.03317462
110	0xbddba9fc	-0.10725781
111	0x3da0ca8d	0.078511335
112	0x3c9a598f	0.018841533
113	0xbbaca948	-0.0052692033
114	0xbbd5f2fa	-0.006529209
115	0xbdb0566c	-0.08610234
116	0xbd4d253e	-0.050084345
117	0x3da54fc2	0.08071853
118	0xbd84aca1	-0.06478239
119	0xbd917ef3	-0.07104292
120	0x3c4ec6d9	0.012620651
121	0xbdae3266	-0.085057065
122	0x3d1b759f	0.03795397
123	0xbc41640b	-0.011803637
124	0x3d5a753e	0.053334467
125	0x3ce3c9fe	0.027806278
126	0xbda42228	-0.08014327
127	0xbbad3ef9	-0.005287048
128	0x3d710416	0.058841787
129	0xbdbfa520	-0.09357667
130	0xbc21f731	-0.009885595
131	0xbcbc6458	-0.022997066
132	0x3c9819bc	0.018566959
133	0x3d195663	0.0374359
134	0xbd141bc0	-0.036159277
135	0x3e1151c6	0.1419135
136	0xbdb51d96	-0.08843534
137	0x3d3dee5a	0.046369888
138	0x3e210b88	0.15727055
139	0xbdaaf5b3	-0.08347645
140	0x3dccf1dc	0.100070685
141	0x3c9d1ce5	0.019178817
142	0xbe114eb0	-0.14190173
143	0x3dbd0beb	0.09230789
144	0xbcd1da90	-0.025616914
145	0xbe31c803	-0.17361455
146	0x3cf8009e	0.030273732
147	0x3dbc700c	0.09201059
148	0x3cc1bed8	0.023650572
149	0xbe1018c7	-0.14071952
150	0x3dd23f67	0.10265999
151	0xbe10da09	-0.14145674
152	0xbe3111f5	-0.17292006
153	0xbe0d7c87	-0.13817035
154	0x3df80240	0.12109804
155	0x3d1c0ab8	0.03809616
156	0xbdfa8d64	-0.12233999
157	0xbddc12be	-0.10745762
158	0xbd9ef5ac	-0.07761702
159	0xbc9fa2fe	-0.0194869
160	0xbe0f41eb	-0.1398999
161	0xbe106e43	-0.14104562
162	0x3de6a878	0.112626016
163	0x3cbdfd42	0.023192052
164	0x3db0604a	0.08612116
165	0x3dc501a1	0.09619451
166	0xbe0e7d32	-0.13914946
167	0x3dbd4955	0.092425026
168	0x3dcd6829	0.100296326
169	0x3d8bede6	0.06832485
170	0x3dba9396	0.09110181
171	0x3d3b6d90	0.045758784
172	0xbd969773	-0.073531054
173	0xbd7c71fd	-0.061632145
174	0xbdb95d08	-0.090509474
175	0xbddd8219	-0.1081583
176	0xbd4d254d	-0.0500844
177	0x3e2571bf	0.16156672
178	0x3dfcdb3e	0.12346505
179	0x3ddd283b	0.10798689
180	0xbcec3775	-0.028835038
181	0x3d8b1d78	0.0679273
182	0xbdb745a9	-0.089488335
183	0x3d829ebb	0.06377932
184	0x3e0ea1f2	0.13928965
185	0xbd8bb13b	-0.068209134
186	0xbd3e7442	-0.04649759
187	0x3d84778b	0.064681135
188	0xbd8a9e02	-0.06768419
189	0x3da6ce0a	0.081447676
190	0x3cc6d3b4	0.02427087
191	0xbda10004	-0.07861331
192	0x3ce75452	0.02823845
193	0xbd9ef947	-0.0776239
194	0x3cc13e92	0.023589406
195	0x3d8aaeb4	0.06771603
196	0x3b88dea9	0.004176934
197	0xbdfe9684	-0.12431052
198	0x3da5a12c	0.08087382
199	0x3d03852b	0.03210942
200	0x3dc20739	0.09474034
201	0x3dd2c1b2	0.10290851
202	0x3d76a036	0.060211383
203	0x3e0c959d	0.13728948
204	0x3ce1a997	0.027546687
205	0x3d5bef19	0.05369482
206	0x3d346e62	0.04405058
207	0xbc1f5c3f	-0.009726583
208	0xbd2371cc	-0.039903447
209	0x3e12a053	0.14318971
210	0xbb4472d0	-0.002997566
211	0x3dff97cb	0.12480124
212	0xbcb6cffd	-0.022315973
213	0xbd779396	-0.060443483
214	0xbd22ab89	-0.03971437
215	0x3c0cd3a8	0.008595385
216	0xbdd4e097	-0.103943996
217	0x3c9f776e	0.019466128
218	0x3e03bcbf	0.1286497
219	0xbd8f1cc5	-0.06987909
220	0x3ddf94bd	0.109170415
221	0xbc6aaabd	-0.014322934
222	0xbdc35d32	-0.0953926
223	0x3c9f5451	0.019449385
224	0xbe235a2d	-0.15952368
225	0x3dba18f6	0.09086792
226	0xbd459936	-0.048241816
227	0xbe5a9c35	-0.21348651
228	0x3ce7af4e	0.028281834
229	0xbe36cfb0	-0.17852664
230	0xbe070b73	-0.13187961
231	0x3db916fe	0.090375885
232	0xbe37909b	-0.17926256
233	0xbdf8dce4	-0.121515065
234	0xbe0252e8	-0.12726939
235	0xbd29d560	-0.041463256
236	0xbe4fe67b	-0.20302765
237	0x3daa3168	0.08310205
238	0xbdf7eda0	-0.1210587
239	0xbdc46c89	-0.09591014
240	0xbda9fd98	-0.08300322
241	0xbd783444	-0.06059672
242	0xbdfea618	-0.124340236
243	0xbdc692af	-0.096959464
244	0xbe108bde	-0.14115855
245	0xbd7a8f1c	-0.061171636
246	0xbd9e96d7	-0.07743614
247	0xbe3fceac	-0.18731183
248	0xbe1dc3a3	-0.1540666
249	0x3e14eb16	0.14542803
250	0xbe0f5276	-0.139963
251	0xbe218959	-0.1577505
252	0x3d3b82e2	0.045779116
253	0xbe266c5d	-0.16252275
254	0xbddbcb13	-0.10732093
255	0xbe130db4	-0.14360696

local_net.conv1.bias f4 [16]
0	0x3d466d42	0.04844404
1	0x3dfaa7d5	0.12239043
2	0x3e1f99e8	0.15586054
3	0xbd962b22	-0.07332446
4	0xbde2046e	-0.11036001
5	0xbe14f7ea	-0.14547697
6	0x3da1ecbe	0.07906483
7	0x3dab9d6c	0.08379635
8	0x3e1ea2b3	0.15491752
9	0x3d1ddcf4	0.038540795
10	0x3e3db2ad	0.1852519
11	0x3de7ec0c	0.11324319
12	0xbdad4d1e	-0.084619746
13	0xbb01d621	-0.0019811469
14	0xbdf14f41	-0.117826946
15	0x3e11a5d2	0.14223412

local_net.mul_blocks.0.gamma_1 f4 [1, 16, 1, 1]
0	0xb94d9ad3	-0.00019608
1	0xbb452ec7	-0.0030087696
2	0xb88737b3	-6.4476764e-05
3	0x3af9a692	0.0019046834
4	0x3705f5ad	7.984619e-06
5	0xb8254363	-3.9401824e-05
6	0xbc5ec7f2	-0.013597475
7	0xb86b2d5e	-5.6070618e-05
8	0xb91a00ed	-0.0001468693
9	0x37e5dc93	2.740164e-05
10	0x3af3fc0f	0.0018614548
11	0x3c036468	0.008019544
12	0x3c0d22d8	0.008614264
13	0xb82fb5eb	-4.1892676e-05
14	0xbc12a926	-0.008951461
15	0xba50d944	-0.00079669454

local_net.mul_blocks.0.gamma_2 f4 [1, 16, 1, 1]
0	0x38598e61	5.1869432e-05
1	0xb8982acf	-7.2558985e-05
2	0xb8b5f066	-8.67553e-05
3	0x3c065e84	0.008201245
4	0x38a9584e	8.074996e-05
5	0xb8d150ae	-9.9809244e-05
6	0x3baf2ca7	0.005345899
7	0x38355e7e	4.3241766e-05
8	0x3c81954e	0.015818264
9	0x3ad90420	0.0016557015
10	0xbb881b22	-0.004153625
11	0x3c6076eb	0.013700227
12	0x39d35271	0.0004030648
13	0xb91ac9b7	-0.00014761729
14	0x3b7b0435	0.0038302068
15	0x380d6937	3.371501e-05

local_net.mul_blocks.0.pos_embed.weight f4 [16, 1, 3, 3]
0	0x3e1037c6	0.14083776
1	0x3a461bf9	0.0007557269
2	0xbe1a093c	-0.15042585
3	0xbcfde89b	-0.030994704
4	0x3d8c2243	0.068424724
5	0x3bb37df5	0.0054776617
6	0x3e3a1251	0.1817105
7	0xb992bc5c	-0.0002798763
8	0xbca06139	-0.01957761
9	0xbd1b4a7d	-0.037912834
10	0x3bc9a25f	0.0061533893
11	0x3defbace	0.11705552
12	0x3dcaa026	0.09893827
13	0xbd3e2456	-0.04642137
14	0x3e04019f	0.12891243
15	0xbe5952e6	-0.2122303
16	0xbd80c000	-0.06286621
17	0x3dc76025	0.09735135
18	0x3cb84e16	0.022498172
19	0x3cffd97d	0.031231636
20	0x3da6d0d6	0.08145301
21	0x3c815420	0.015787184
22	0x3d51e64c	0.05124502
23	0xbbeb1d32	-0.007175111
24	0x3d145df4	0.036222413
25	0x3d3dbe7d	0.046324242
26	0xbaaa9344	-0.0013013859
27	0xbdf153a2	-0.1178353
28	0x3d8c59a8	0.06853038
29	0xbe15c240	-0.14624882
30	0xbdaa74a1	-0.083230264
31	0x3d6a91f1	0.057268087
32	0x3d344a3b	0.044016104
33	0x3d13a27a	0.03604362
34	0xbe0feb55	-0.14054616
35	0x3c4a6603	0.012353423
36	0x3b57e5e4	0.0032943422
37	0x3e23a057	0.15979134
38	0x3b1e8e8d	0.0024193854
39	0xbd1334df	-0.035939094
40	0x3d550501	0.052006725
41	0xbda69487	-0.08133798
42	0x3cc0f4ac	0.023554169
43	0x3c8f825e	0.017518219
44	0xbb807fe9	-0.003921498
45	0xbb22b979	-0.0024829789
46	0xba913a53	-0.0011080004
47	0xbd8771ad	-0.06613479
48	0xbe3ccf1a	-0.18438378
49	0x390547d4	0.00012710626
50	0xbafb8201	-0.0019188524
51	0xbe0f4a4f	-0.1399319
52	0x39a8ad69	0.00032172658
53	0xb9f63650	-0.00046961242
54	0x3e2d3741	0.16915609
55	0x3dbe76e8	0.09300023
56	0xbe03faac	-0.12888592
57	0x3e0c3d17	0.13695179
58	0xbe14e9aa	-0.14542261
59	0x3e206f91	0.15667559
60	0x3e6a02e3	0.22852664
61	0xbe0247ad	-0.12722655
62	0xbd9209b4	-0.07130757
63	0xb893f39f	-7.054884e-05
64	0x3a10f4a3	0.0005529618
65	0x3b0fc313	0.0021936342
66	0x3e2ce4f4	0.16884214
67	0xbdc8534a	-0.09781511
68	0xbbf1dca1	-0.0073810373
69	0xbc82b972	-0.015957568
70	0xbd0cc38a	-0.034366168
71	0x3cf5ad2f	0.029989807
72	0x3e47fd77	0.19530283
73	0xbe40797a	-0.1879634
74	0xbe41ec7e	-0.18937871
75	0x3b80b89c	0.003928257
76	0xbb111284	-0.002213628
77	0x3e0866a5	0.13320406
78	0x3d24d330	0.040240467
79	0x3dc7744f	0.09738981
80	0xbe1c2c7e	-0.15251347
81	0xbc882ea6	-0.016623806
82	0xbd04bc2e	-0.032406025
83	0x3e36a10c	0.17834872
84	0xbc2f2f67	-0.010692454
85	0xbbe6f317	-0.0070480215
86	0xbde988cd	-0.11403046
87	0xbcb9f6a8	-0.022700623
88	0x3c851c1b	0.016248753
89	0xbc679804	-0.014135364
90	0x3d951011	0.07278455
91	0xbd7dde28	-0.061979443
92	0x3e0a9fdd	0.13537546
93	0xbe269327	-0.16267072
94	0xbccc474e	-0.024936344
95	0x3bbf5fa0	0.005840257
96	0xbdaf47a5	-0.08558587
97	0xbe0bc681	-0.13649942
98	0x3d987daa	0.074458435
99	0x3d978182	0.073977485
100	0x3cd7f0c0	0.026359916
101	0x3df4d395	0.119544186
102	0xbde3355d	-0.110941626
103	0x3d46624c	0.048433587
104	0xbd93f97c	-0.0722532
105	0xbd7cbd57	-0.061704006
106	0x3e6cd13b	0.2312669
107	0x3e416f0e	0.1889002
108	0xbdbd1d2b	-0.09234079
109	0x3cb3e5d3	0.021960175
110	0xbe258452	-0.16163757
111	0x3bc8d05d	0.0061283545
112	0x3ac5ea73	0.0015099779
113	0xba59d3c0	-0.0008309446
114	0x3b19fecd	0.002349782
115	0xbc961815	-0.01832203
116	0xbdc8ec0a	-0.09810646
117	0x3d67c7bc	0.056586966
118	0x3ac0c739	0.001470781
119	0xb9db8050	-0.00041866535
120	0xbd0a997a	-0.033837773
121	0x3db22307	0.08698087
122	0xbc81becb	-0.015838047
123	0x3d7efaf5	0.06225105
124	0xbdabd4fc	-0.08390233
125	0xbe290e0e	-0.16509268
126	0xbd9d52a0	-0.07681775
127	0x3d26c77e	0.040717594
128	0x3c7db84a	0.0154858325
129	0x3dfb9cb7	0.1228575
130	0xbe360e0b	-0.17778794
131	0xbe1d8e9a	-0.1538643
132	0xbae9c1a3	-0.0017834197
133	0xbe131f31	-0.14367367
134	0x3dd0cf56	0.10195796
135	0xbc0720c3	-0.008247557
136	0xbe30f534	-0.17281038
137	0xbbc92930	-0.006138943
138	0x3dbdd782	0.092696205
139	0xbd772cc0	-0.06034541
140	0x3d53a4dc	0.051670894
141	0xbbc495c7	-0.0059993
142	0xbbcfac00	-0.0063376427
143	0x3bd3b164	0.0064603556

local_net.mul_blocks.0.pos_embed.bias f4 [16]
0	0x3dab80ad	0.08374152
1	0xbe8832ed	-0.26601353
2	0x3daa5b44	0.08318189
3	0xbd659707	-0.056052234
4	0x3e1e567f	0.15462683
5	0x3d4801b1	0.048829738
6	0xbe2108c1	-0.15725996
7	0x3dd74870	0.10511863
8	0x3e9e574b	0.30925974
9	0x3de657c9	0.112472124
10	0x3e8a6ca4	0.2703601
11	0x3e8ad6f0	0.2711711
12	0x3da8061a	0.08204289
13	0xbda29b08	-0.07939726
14	0xbe910b78	-0.28329062
15	0x3da2a15e	0.079409346

local_net.mul_blocks.0.norm1.alpha f4 [1, 1, 16]
0	0x3f55fb5a	0.8358666
1	0x3f55fac6	0.83585775
2	0x3f55fb9e	0.8358706
3	0x3f55fb91	0.83586985
4	0x3f55fbb8	0.8358722
5	0x3f55fbb6	0.83587205
6	0x3f55fb61	0.835867
7	0x3f55fb1f	0.83586305
8	0x3f55fb2f	0.835864
9	0x3f55fb3d	0.83586484
10	0x3f55faf5	0.83586055
11	0x3f55fb5b	0.83586663
12	0x3f55fb6d	0.8358677
13	0x3f55fbb0	0.8358717
14	0x3f55fad7	0.83585876
15	0x3f55fb45	0.8358653

local_net.mul_blocks.0.norm1.beta f4 [1, 1, 16]
0	0xb7916a2a	-1.7334783e-05
1	0x378307e7	1.5620097e-05
2	0x37a8eb08	2.0136606e-05
3	0xb696d104	-4.494681e-06
4	0xb696ced6	-4.4944272e-06
5	0x37869fd7	1.6048476e-05
6	0xb6736054	-3.6265892e-06
7	0x35416e60	7.205872e-07
8	0x3788cdd8	1.6308317e-05
9	0xb71b9313	-9.272963e-06
10	0xb6cd7855	-6.1234846e-06
11	0x374b7e55	1.2129157e-05
12	0xb605f794	-1.9962654e-06
13	0x36eda995	7.0828924e-06
14	0x374218d0	1.1569078e-05
15	0xb7345ec8	-1.0750904e-05

local_net.mul_blocks.0.norm1.color f4 [16, 16]
0	0x3f55fb5a	0.8358666
1	0xb544512e	-7.313382e-07
2	0x350de43b	5.285871e-07
3	0xb5daed96	-1.6311412e-06
4	0x33bc773f	8.776123e-08
5	0xb374376c	-5.6861083e-08
6	0xb5f841b4	-1.8496562e-06
7	0x358d3bd4	1.0522731e-06
8	0xb5f07145	-1.7914359e-06
9	0x350050bc	4.78012e-07
10	0xb6cd95cb	-6.1269143e-06
11	0xb69580d4	-4.4555436e-06
12	0xb4a0e3cd	-2.996807e-07
13	0xb51b4dbe	-5.785513e-07
14	0x358bf82a	1.0428532e-06
15	0x351ada63	5.7687265e-07
16	0x3698933b	4.547093e-06
17	0x3f55fac8	0.83585787
18	0x36d2ed13	6.286087e-06
19	0xb598dbaf	-1.1388819e-06
20	0x36e456d8	6.8050394e-06
21	0x35dca19e	1.6438314e-06
22	0x366227cb	3.3699787e-06
23	0x36ae874b	5.2013543e-06
24	0x36b3bc95	5.3565695e-06
25	0x366a0c4f	3.4875882e-06
26	0x36f5c69c	7.32469e-06
27	0x36bc06f3	5.6036456e-06
28	0x3612adfd	2.185697e-06
29	0x36bfd530	5.717062e-06
30	0xb6b6203a	-5.4277743e-06
31	0x36a7d5f2	5.0018944e-06
32	0x368ec0af	4.254361e-06
33	0xb56f7519	-8.920484e-07
34	0x3f55fb9e	0.8358706
35	0x326eff24	1.3911436e-08
36	0x368f2dac	4.267049e-06
37	0x3490dc61	2.6982437e-07
38	0x358de80b	1.0572852e-06
39	0x3714896f	8.853486e-06
40	0x3713042f	8.762857e-06
41	0x3635938d	2.7056988e-06
42	0x36d815ff	6.4398623e-06
43	0x36da0d40	6.498449e-06
44	0x35d75ab5	1.6045148e-06
45	0x36342a44	2.6846692e-06
46	0xb71e691b	-9.442006e-06
47	0x370b49e4	8.30225e-06
48	0xb6469715	-2.959224e-06
49	0x35071cd2	5.033336e-07
50	0xb6383f3a	-2.745494e-06
51	0x3f55fb91	0.83586985
52	0xb5d2c781	-1.5704283e-06
53	0xb4ca5714	-3.768879e-07
54	0xb58c2afe	-1.0443325e-06
55	0xb6141817	-2.206774e-06
56	0xb65e056b	-3.3083732e-06
57	0xb5a39f6d	-1.2190845e-06
58	0xb7017b29	-7.717675e-06
59	0xb6c1147b	-5.7542325e-06
60	0xb5d3737b	-1.5754334e-06
61	0x34df07df	4.1542714e-07
62	0x362c2cf6	2.5656168e-06
63	0xb60eb321	-2.1263916e-06
64	0xb618989b	-2.2738593e-06
65	0xb41d8c7f	-1.4672877e-07
66	0xb608d35e	-2.038861e-06
67	0x356ab385	8.743303e-07
68	0x3f55fbb8	0.8358722
69	0xb51b2a3e	-5.780347e-07
70	0xb59cc5af	-1.1680439e-06
71	0xb62b851d	-2.5558468e-06
72	0xb64f2ba7	-3.0870813e-06
73	0xb55f3e9f	-8.31651e-07
74	0xb6c19bf4	-5.7700036e-06
75	0xb69be7d0	-4.6463465e-06
76	0xb5cd3bd4	-1.5291102e-06
77	0xb4fed14d	-4.7463473e-07
78	0x363e0308	2.831397e-06
79	0xb61cdc48	-2.3374032e-06
80	0x36c3e86c	5.8385103e-06
81	0xb4ea9ed5	-4.3701462e-07
82	0x36c1c0ac	5.774278e-06
83	0xb58cddf0	-1.0495405e-06
84	0x3686ac56	4.0135737e-06
85	0x3f55fbb6	0.83587205
86	0x36378c62	2.7350839e-06
87	0x370466b8	7.891729e-06
88	0x36d2fa78	6.287646e-06
89	0x35f5e2db	1.8319946e-06
90	0x36ede8fd	7.090274e-06
91	0x36c44d3b	5.850246e-06
92	0x367e9277	3.7934203e-06
93	0x363f2d32	2.8487525e-06
94	0xb6e0f846	-6.704623e-06
95	0x36f22404	7.216355e-06
96	0xb619cf54	-2.2919457e-06
97	0x358eaadd	1.0629552e-06
98	0xb64862a0	-2.985973e-06
99	0xb4b93f29	-3.450489e-07
100	0xb602f66a	-1.9514941e-06
101	0xb3862df1	-6.248218e-08
102	0x3f55fb61	0.835867
103	0xb65e46e1	-3.3121835e-06
104	0xb665fd61	-3.4271145e-06
105	0xb5bec7b3	-1.4214223e-06
106	0xb5bf0b4e	-1.4233899e-06
107	0xb607f992	-2.0261837e-06
108	0xb4d83a0b	-4.0275367e-07
109	0xb5a1c142	-1.205168e-06
110	0x36600681	3.3382387e-06
111	0xb64e70e1	-3.0762096e-06
112	0x35f1301c	1.7969901e-06
113	0xb48a1349	-2.5718535e-07
114	0x3609aff1	2.0517002e-06
115	0xb6046ea2	-1.973393e-06
116	0x35cb71e8	1.515783e-06
117	0x35254fd6	6.1583467e-07
118	0x35f2a423	1.8078175e-06
119	0x3f55fb1f	0.83586305
120	0x35d9dd39	1.6232144e-06
121	0x3540be24	7.1802265e-07
122	0x368865cc	4.0649666e-06
123	0x364ef12d	3.0836775e-06
124	0x35e11336	1.6769397e-06
125	0xb569a8e6	-8.7045044e-07
126	0xb5aef36f	-1.3034859e-06
127	0x358f7d88	1.0690865e-06
128	0x36b887ca	5.4994352e-06
129	0xb6071bcd	-2.013275e-06
130	0x36981b7d	4.533153e-06
131	0xb62bd0f5	-2.5602615e-06
132	0x36e39706	6.7827086e-06
133	0x35766afd	9.179783e-07
134	0x3608ea4c	2.0401958e-06
135	0x37175888	9.020914e-06
136	0x3f55fb2f	0.835864
137	0x36adf858	5.184713e-06
138	0x3772661f	1.4448101e-05
139	0x3709dad5	8.216787e-06
140	0x36842de0	3.939247e-06
141	0xb20773dd	-7.8843785e-09
142	0xb6dea123	-6.6348744e-06
143	0x37147918	8.849682e-06
144	0xb650ddf7	-3.1123616e-06
145	0xb59835a6	-1.1340496e-06
146	0xb5c9c495	-1.503288e-06
147	0x35eb9fb5	1.7555345e-06
148	0xb62664cb	-2.4794597e-06
149	0xb5af1a83	-1.3046232e-06
150	0xb65371a6	-3.1507602e-06
151	0xb70005b7	-7.630725e-06
152	0xb6cc324b	-6.0855286e-06
153	0x3f55fb3d	0.83586484
154	0xb6b188d6	-5.290941e-06
155	0xb69fe5a9	-4.765305e-06
156	0xb60d4ce7	-2.10554e-06
157	0xb636b7dc	-2.7227134e-06
158	0x36e33331	6.7710866e-06
159	0xb6eed3a7	-7.1175923e-06
160	0xb6189c28	-2.274066e-06
161	0x341f31ea	1.4826188e-07
162	0xb5d7a353	-1.6066282e-06
163	0x34f0d84f	4.486087e-07
164	0xb5c0506b	-1.432852e-06
165	0xb489105b	-2.553014e-07
166	0xb59a832a	-1.1512068e-06
167	0xb647ff2a	-2.9801836e-06
168	0xb63ace3c	-2.7836204e-06
169	0xb5ba2e32	-1.3871525e-06
170	0x3f55faf5	0.83586055
171	0xb6990eee	-4.5614934e-06
172	0xb58f4be4	-1.0676417e-06
173	0xb5023b29	-4.8514863e-07
174	0x3634399f	2.685563e-06
175	0xb63d3f1e	-2.8199934e-06
176	0x364c5bb9	3.0451758e-06
177	0xb58fa12c	-1.0701237e-06
178	0x36923336	4.357101e-06
179	0x3507b689	5.055704e-07
180	0x3654d5ba	3.1714867e-06
181	0x33881f92	6.338736e-08
182	0x3522d788	6.066334e-07
183	0x36e58e15	6.8412724e-06
184	0x36c7fab0	5.959846e-06
185	0x360cd52a	2.0985703e-06
186	0x365e8bf6	3.3162046e-06
187	0x3f55fb5b	0.83586663
188	0x358c6793	1.0460957e-06
189	0x34859b3b	2.4886126e-07
190	0xb6f07cd2	-7.1670884e-06
191	0x36d4d132	6.342446e-06
192	0x35e028ba	1.6701154e-06
193	0xb5f4419f	-1.8198515e-06
194	0x3638e123	2.7549183e-06
195	0xb5983740	-1.1340962e-06
196	0x362b8a6f	2.5561565e-06
197	0x34b5460c	3.3764843e-07
198	0xb5971516	-1.1256514e-06
199	0x3662397a	3.371008e-06
200	0x347a04ec	2.3284855e-07
201	0x3611806b	2.1681433e-06
202	0xb4e872d8	-4.3296927e-07
203	0xb5018017	-4.824264e-07
204	0x3f55fb6d	0.8358677
205	0xb57ade7c	-9.3456015e-07
206	0xb5b42689	-1.342226e-06
207	0x3633726f	2.6739688e-06
208	0x3663b1bf	3.3929098e-06
209	0xb51e999f	-5.9083135e-07
210	0x361a0895	2.2952784e-06
211	0xb5a2a874	-1.2118967e-06
212	0x3613a63d	2.200147e-06
213	0x35166127	5.602073e-07
214	0x35a9b6a7	1.264464e-06
215	0x36573000	3.2065436e-06
216	0x3678044b	3.6957379e-06
217	0x360121a7	1.9242086e-06
218	0x37127359	8.729135e-06
219	0x36de3928	6.6227694e-06
220	0x3602918d	1.9456231e-06
221	0x3f55fbaf	0.83587164
222	0xb65a802c	-3.2559137e-06
223	0x364bad5e	3.035027e-06
224	0x366a660e	3.492812e-06
225	0xb41cb9a8	-1.4596174e-07
226	0x364a164c	3.0113324e-06
227	0xb5804423	-9.556574e-07
228	0x366ff373	3.5755481e-06
229	0x3583b96a	9.814223e-07
230	0x3625f629	2.47302e-06
231	0x372c6161	1.0274672e-05
232	0x370e33a8	8.475887e-06
233	0x363e610e	2.83687e-06
234	0x36ed015c	7.0633087e-06
235	0x36da1aca	6.500025e-06
236	0x35e0cf02	1.6749548e-06
237	0x364d170e	3.05608e-06
238	0x3f55fad9	0.8358589
239	0x371e9501	9.452227e-06
240	0xb67aeccf	-3.7390744e-06
241	0x3591ad56	1.0853789e-06
242	0xb6c0a09c	-5.7407433e-06
243	0x353be5ef	6.9997526e-07
244	0xb68184f6	-3.8599783e-06
245	0xb5641faf	-8.4982725e-07
246	0xb5e72842	-1.7222558e-06
247	0xb6bcf36f	-5.631176e-06
248	0xb7153dc9	-8.895478e-06
249	0xb5f30cc0	-1.8108622e-06
250	0xb75a8329	-1.3024351e-05
251	0xb7321108	-1.0613592e-05
252	0xb63ca5af	-2.8110624e-06
253	0xb6179672	-2.2588324e-06
254	0x36f82687	7.395461e-06
255	0x3f55fb46	0.8358654

local_net.mul_blocks.0.conv1.bias f4 [16]
0	0x3ca4dab7	0.020123823
1	0xbdd3e4bd	-0.10346363
2	0xbcb98db0	-0.02265057
3	0x3cee983f	0.029125331
4	0x3872882f	5.7824127e-05
5	0xbaac9114	-0.0013165795
6	0x3d2e00e3	0.042481314
7	0x3dbdd43a	0.09268995
8	0x39f3b2f0	0.0004648189
9	0x3c50d499	0.012746
10	0xbb1e240a	-0.0024130368
11	0x3a9a782d	0.0011785083
12	0x3d78b9e7	0.060724165
13	0xbdc0fe11	-0.09423459
14	0x3d379b5e	0.044825904
15	0xbdc34820	-0.09535241

local_net.mul_blocks.0.conv2.bias f4 [16]
0	0xb6e4539e	-6.804664e-06
1	0x3d26f4cc	0.0407608
2	0xb6c87097	-5.9735717e-06
3	0xba8e3069	-0.0010848168
4	0x381647a8	3.5829522e-05
5	0xb8cc1edb	-9.733225e-05
6	0xbcfb28d0	-0.03065911
7	0x35e93c2d	1.7377366e-06
8	0xb7def23f	-2.6577267e-05
9	0x36ff2086	7.6033784e-06
10	0x38fbb08d	0.00012001498
11	0x3bb20595	0.0054327943
12	0x3db00382	0.08594419
13	0x3ad15931	0.0015972016
14	0x3b1df202	0.0024100547
15	0xbc1da933	-0.00962286

local_net.mul_blocks.0.attn.bias f4 [16]
0	0x3b441c22	0.0029923995
1	0x374aaba7	1.2080104e-05
2	0x3d2084e9	0.039189253
3	0x3cc1d937	0.023663146
4	0x3d27ff0b	0.041014712
5	0x384bf664	4.862844e-05
6	0xbc7719b6	-0.015081814
7	0xb8b07486	-8.414038e-05
8	0x3ca1af16	0.019736808
9	0xb636d10e	-2.72418e-06
10	0xbd5134dd	-0.051075805
11	0x3a883a2a	0.0010393311
12	0x39fe1dc5	0.00048468835
13	0xbc93f253	-0.018059885
14	0xbd29ba02	-0.041437156
15	0xbb8a1d42	-0.0042149136

local_net.mul_blocks.0.norm2.alpha f4 [1, 1, 16]
0	0x3f55fbed	0.83587533
1	0x3f55faec	0.83586
2	0x3f55fa7e	0.83585346
3	0x3f55fb81	0.8358689
4	0x3f55fc1b	0.8358781
5	0x3f55fb5e	0.8358668
6	0x3f55fafd	0.835861
7	0x3f55fbcc	0.83587337
8	0x3f55fa33	0.835849
9	0x3f55fbe1	0.8358746
10	0x3f55f9c4	0.8358424
11	0x3f55fc92	0.83588517
12	0x3f55fb3d	0.83586484
13	0x3f55fbd1	0.83587366
14	0x3f55fcd3	0.83588904
15	0x3f55fa8e	0.8358544

local_net.mul_blocks.0.norm2.beta f4 [1, 1, 16]
0	0xb516e34f	-5.621013e-07
1	0x37e1cd0f	2.6917578e-05
2	0xb795cf2f	-1.7858662e-05
3	0x37a87686	2.0082352e-05
4	0x372844a4	1.0029562e-05
5	0xb782e3fc	-1.5603371e-05
6	0x3783bb46	1.5703623e-05
7	0x38606ba0	5.3505995e-05
8	0xb7e81741	-2.7667384e-05
9	0x38506ac4	4.9690498e-05
10	0xb71e376a	-9.430436e-06
11	0x36bdd8d1	5.6578797e-06
12	0xb6e75096	-6.893718e-06
13	0x364fa75f	3.0942826e-06
14	0xb696df91	-4.496375e-06
15	0xb7136785	-8.785985e-06

local_net.mul_blocks.0.norm2.color f4 [16, 16]
0	0x3f55fbed	0.83587533
1	0xb50ec955	-5.31921e-07
2	0xb4237df5	-1.5226381e-07
3	0x3489b411	2.5649254e-07
4	0xb50688c3	-5.0117904e-07
5	0xb44d75da	-1.9134987e-07
6	0xb581027f	-9.611975e-07
7	0xb50455ad	-4.9298507e-07
8	0xb4b9c817	-3.460452e-07
9	0xb3bee7ad	-8.889706e-08
10	0xb50829bf	-5.0724697e-07
11	0xb4628e8c	-2.1099748e-07
12	0xb4c72e7c	-3.710046e-07
13	0xb53a5538	-6.941441e-07
14	0x34f23214	4.511245e-07
15	0xb4f832fe	-4.62307e-07
16	0x374bba3a	1.2143102e-05
17	0x3f55faed	0.8358601
18	0x36cbb162	6.0705215e-06
19	0xb6798fc3	-3.7187572e-06
20	0x36ef406c	7.1302547e-06
21	0x36260c0f	2.4742947e-06
22	0x36e476e9	6.8087725e-06
23	0x37a6019d	1.9789493e-05
24	0x37815bc1	1.5420725e-05
25	0x36ac21e7	5.129946e-06
26	0x376f0009	1.4245518e-05
27	0x374fa84a	1.2377344e-05
28	0x370a65cc	8.249142e-06
29	0x3711025d	8.643224e-06
30	0xb7935173	-1.7561693e-05
31	0x37999be0	1.8311606e-05
32	0xb6cc8b6a	-6.0959037e-06
33	0xb60cb8f7	-2.096929e-06
34	0x3f55fa7f	0.8358535
35	0x359391ff	1.0994844e-06
36	0xb7377b95	-1.0936424e-05
37	0xb60cd716	-2.0986822e-06
38	0xb7141f64	-8.828796e-06
39	0xb70ee3d2	-8.516903e-06
40	0xb6f19023	-7.1991394e-06
41	0xb6dd58ba	-6.5966424e-06
42	0xb74f142e	-1.234286e-05
43	0xb7177af8	-9.028932e-06
44	0xb6a9fbe5	-5.065917e-06
45	0xb755f451	-1.2752674e-05
46	0x370a6cf2	8.250807e-06
47	0xb7052226	-7.935369e-06
48	0x36d24f3d	6.2677123e-06
49	0xb46749cc	-2.1540399e-07
50	0x36d89174	6.4542346e-06
51	0x3f55fb81	0.8358689
52	0x371fea68	9.5317155e-06
53	0x36365060	2.7166898e-06
54	0x3706ef3e	8.042725e-06
55	0x37b84c2c	2.196998e-05
56	0x37a1e03d	1.9297115e-05
57	0x36d37d6a	6.30289e-06
58	0x3793c15a	1.7613802e-05
59	0x378f6df9	1.7098138e-05
60	0x36919f98	4.339916e-06
61	0x36c4056d	5.841887e-06
62	0xb7b19142	-2.1167685e-05
63	0x37ad8ff0	2.0690233e-05
64	0x36641c3f	3.399109e-06
65	0x356ddd6a	8.861158e-07
66	0x36aa685a	5.078543e-06
67	0xb568b0f8	-8.668426e-07
68	0x3f55fc1c	0.83587813
69	0x359bf9a3	1.1621054e-06
70	0x369e8384	4.7240774e-06
71	0x369f2c20	4.743706e-06
72	0x368795df	4.040761e-06
73	0x367bea06	3.7538134e-06
74	0x36eac37b	6.9965004e-06
75	0x36a8cbad	5.030501e-06
76	0x362db8f2	2.5886661e-06
77	0x36ddf632	6.614974e-06
78	0xb699ee64	-4.5875076e-06
79	0x36942575	4.4151043e-06
80	0xb6ba52f1	-5.5528876e-06
81	0xb52682f5	-6.2030387e-07
82	0xb68ac4f5	-4.1356493e-06
83	0x3623d9d9	2.4415697e-06
84	0xb6a5f50a	-4.9459095e-06
85	0x3f55fb5f	0.83586687
86	0xb69b3579	-4.625585e-06
87	0xb7668c53	-1.374174e-05
88	0xb739d8d3	-1.1077343e-05
89	0xb686afd1	-4.013979e-06
90	0xb7244e6a	-9.793419e-06
91	0xb7133619	-8.774478e-06
92	0xb66a2e23	-3.4895572e-06
93	0xb6893841	-4.089467e-06
94	0x374e0960	1.228074e-05
95	0xb7566e59	-1.2781086e-05
96	0x36b21ffb	5.3085364e-06
97	0x35dcf11f	1.6461453e-06
98	0x36fd905b	7.5567928e-06
99	0xb58a7a11	-1.0317327e-06
100	0x3710ee7c	8.638595e-06
101	0x35f95d0b	1.8579025e-06
102	0x3f55faff	0.83586115
103	0x36d98f2b	6.483771e-06
104	0x36cc31eb	6.085485e-06
105	0x369919da	4.562765e-06
106	0x3714bc1b	8.865284e-06
107	0x36de855b	6.63164e-06
108	0x36496d5a	3.0014985e-06
109	0x3716a1f8	8.978408e-06
110	0xb6db9c8f	-6.5449344e-06
111	0x36ccd891	6.1048854e-06
112	0x37c61b71	2.3616218e-05
113	0x365479bc	3.166132e-06
114	0x37a24cb2	1.9347619e-05
115	0xb6747516	-3.6426986e-06
116	0x377f9aee	1.5235257e-05
117	0x369287ae	4.3669343e-06
118	0x375a6ec7	1.3019605e-05
119	0x3f55fbcc	0.83587337
120	0x37c03b2d	2.291574e-05
121	0x36ea0f3a	6.975516e-06
122	0x37d2a73a	2.5111822e-05
123	0x37b34b88	2.1373635e-05
124	0x378483dd	1.579703e-05
125	0x379d19d0	1.8727878e-05
126	0xb7e146ae	-2.6855003e-05
127	0x37f99b9a	2.975557e-05
128	0xb7334ead	-1.068755e-05
129	0xb6536612	-3.1500863e-06
130	0xb7538ea1	-1.2609788e-05
131	0x35e558c8	1.7087668e-06
132	0xb778013d	-1.478224e-05
133	0xb67b3fda	-3.743908e-06
134	0xb710b400	-8.624978e-06
135	0xb73a2be5	-1.1096684e-05
136	0x3f55fa33	0.835849
137	0xb6dc97ec	-6.574197e-06
138	0xb75edaf8	-1.3283214e-05
139	0xb72a23ca	-1.0141122e-05
140	0xb6a78d37	-4.9934274e-06
141	0xb7863c8d	-1.6002241e-05
142	0x37341a5d	1.0734974e-05
143	0xb72f34c2	-1.04430965e-05
144	0x379c16e4	1.8607308e-05
145	0x36c43869	5.847822e-06
146	0x37bd1d61	2.2544236e-05
147	0xb6849fca	-3.9525085e-06
148	0x37eecca5	2.8467106e-05
149	0x36ec4722	7.041629e-06
150	0x3789d7e5	1.6432206e-05
151	0x37b65c8b	2.1739184e-05
152	0x379bd753	1.8577708e-05
153	0x3f55fbe3	0.83587474
154	0x37f0e3df	2.871634e-05
155	0x37b2182e	2.1230513e-05
156	0x3729b5f8	1.0115553e-05
157	0x38000a12	3.0526957e-05
158	0xb7b18f67	-2.1166821e-05
159	0x37ab478d	2.0418107e-05
160	0xb65b6d22	-3.2697067e-06
161	0xb5a40fc7	-1.2223544e-06
162	0xb693d071	-4.405207e-06
163	0x35515034	7.797528e-07
164	0xb6c547bc	-5.8794085e-06
165	0xb58810b3	-1.013765e-06
166	0xb6ba5471	-5.5530622e-06
167	0xb699bd14	-4.581767e-06
168	0xb6815e4b	-3.8554767e-06
169	0xb67f8672	-3.8076219e-06
170	0x3f55f9c8	0.8358426
171	0xb6ba940f	-5.5604683e-06
172	0xb66587e0	-3.4202749e-06
173	0xb6e33d97	-6.772297e-06
174	0x36955271	4.4501435e-06
175	0xb6901dd3	-4.2950064e-06
176	0x35e39f25	1.6959135e-06
177	0x34af2ed0	3.263035e-07
178	0x366df9c2	3.546113e-06
179	0xb55bfc24	-8.195077e-07
180	0x365eaf65	3.318267e-06
181	0x3540ab02	7.1774423e-07
182	0x35fef6d4	1.8996311e-06
183	0x36b6681c	5.4361426e-06
184	0x36c25914	5.7920206e-06
185	0x35b560ec	1.3513759e-06
186	0x36d04172	6.206502e-06
187	0x3f55fc92	0.83588517
188	0x35f23c6b	1.8047989e-06
189	0x359e8996	1.181196e-06
190	0xb6c48b42	-5.857467e-06
191	0x36acd5b5	5.150878e-06
192	0xb6295cf6	-2.5237073e-06
193	0xb47b0900	-2.3379471e-07
194	0xb636d34c	-2.7243104e-06
195	0x34c7acb1	3.7192288e-07
196	0xb62834fd	-2.5064794e-06
197	0xb5345f82	-6.719421e-07
198	0xb5a1f358	-1.2066257e-06
199	0xb62fc095	-2.618913e-06
200	0xb61645cb	-2.2392367e-06
201	0xb55ed961	-8.301777e-07
202	0xb6369f24	-2.7212745e-06
203	0xb617ba7f	-2.2609308e-06
204	0x3f55fb40	0.835865
205	0xb612dd0b	-2.188436e-06
206	0x3621495a	2.4033566e-06
207	0xb6237933	-2.435944e-06
208	0x35abbf7b	1.2796221e-06
209	0x34dc79b9	4.1066758e-07
210	0x35741f11	9.094229e-07
211	0xb51273d4	-5.455779e-07
212	0x358f8319	1.0692485e-06
213	0x34b79ace	3.4199041e-07
214	0x35a6e638	1.2434966e-06
215	0x362ffe6f	2.6225132e-06
216	0x3612c81c	2.1872174e-06
217	0x35309a34	6.5789504e-07
218	0x360c79c0	2.0932493e-06
219	0x35f0c1f6	1.7937843e-06
220	0x35648ec5	8.5144376e-07
221	0x3f55fbd4	0.83587384
222	0xb6202510	-2.386343e-06
223	0x3624fa71	2.458368e-06
224	0xb5ef749a	-1.7840823e-06
225	0xb552f1dc	-7.858305e-07
226	0xb62cbdc0	-2.5740446e-06
227	0x347a0ded	2.328813e-07
228	0xb665891d	-3.420347e-06
229	0xb538cc68	-6.884279e-07
230	0xb63d8984	-2.824324e-06
231	0xb61ee404	-2.3676557e-06
232	0xb5de1e9c	-1.6549197e-06
233	0xb6070654	-2.012025e-06
234	0xb65a268f	-3.2506975e-06
235	0xb6122aa2	-2.178051e-06
236	0xb5a79950	-1.2487089e-06
237	0xb6969ab2	-4.4883573e-06
238	0x3f55fcd6	0.8358892
239	0xb6109311	-2.1543276e-06
240	0xb64983d6	-3.0028073e-06
241	0xb565cd23	-8.560766e-07
242	0xb68b49c5	-4.1511107e-06
243	0x354e7f4e	7.6926233e-07
244	0xb6a61cca	-4.950537e-06
245	0xb59082b6	-1.0766878e-06
246	0xb65620a9	-3.1907496e-06
247	0xb668c486	-3.4685086e-06
248	0xb6534cb7	-3.1486104e-06
249	0xb632c2ff	-2.663757e-06
250	0xb6a10c95	-4.7996386e-06
251	0xb6772ca6	-3.6831857e-06
252	0xb5d4ccef	-1.5854874e-06
253	0xb6a2493a	-4.836501e-06
254	0x36677cff	3.449444e-06
255	0x3f55fa8e	0.8358544

local_net.mul_blocks.0.mlp.fc1.bias f4 [64]
0	0x3da2942f	0.0793842
1	0xbb8c7407	-0.0042862925
2	0x3ae22256	0.0017252665
3	0x3c63e9e4	0.013910744
4	0x380b8f9f	3.327394e-05
5	0xbc448ac8	-0.011995979
6	0x3db90254	0.09033647
7	0xb8940ded	-7.059784e-05
8	0xbdd66882	-0.10469152
9	0x3d915b17	0.07097452
10	0xbd8deb76	-0.06929676
11	0x37cbdf45	2.4303454e-05
12	0x3cc7b4bb	0.024378171
13	0x3d4b739a	0.049670793
14	0x36a97314	5.0499893e-06
15	0x38d1b5c9	9.999757e-05
16	0xbdd69a39	-0.104786344
17	0x37ab02cd	2.0386093e-05
18	0x3c031b30	0.0080020875
19	0xbda77c93	-0.081780575
20	0xb7b35eb3	-2.138256e-05
21	0xb83239ee	-4.249246e-05
22	0xb8b22148	-8.4939005e-05
23	0xbd719130	-0.058976352
24	0x390a023a	0.00013161535
25	0xb7ed34e0	-2.8277223e-05
26	0x37337199	1.069568e-05
27	0x3cd2010a	0.025635261
28	0xbc25ccf7	-0.010119668
29	0x3d9d94df	0.076944105
30	0x3d8097ab	0.06278928
31	0xb6335107	-2.6720243e-06
32	0x3bc03a54	0.0058663283
33	0x3da07a26	0.07835798
34	0xb77ab17c	-1.4942485e-05
35	0xb55f4e6c	-8.318809e-07
36	0x3bb06db4	0.0053841714
37	0x3d186701	0.037207607
38	0x36edf80b	7.0920264e-06
39	0x3c3b88d5	0.0114461975
40	0xbdc62d05	-0.096765555
41	0xbc87f99e	-0.016598519
42	0x3c9141de	0.017731603
43	0x3c41c370	0.011826381
44	0x3c7fbcf3	0.015609014
45	0x3b4446af	0.0029949357
46	0xbd966631	-0.0734371
47	0x381a57a5	3.6798087e-05
48	0xbbada72d	-0.00529947
49	0xbb232c26	-0.002489814
50	0x3da76ba3	0.08174827
51	0xb949bf69	-0.0001924016
52	0x3d605ab7	0.054774012
53	0xbc2155a4	-0.0098470785
54	0x3cbf924d	0.023385191
55	0xbd0c4140	-0.034241915
56	0xb88fd27c	-6.857977e-05
57	0x3b10e9ee	0.002211209
58	0xbda097fe	-0.0784149
59	0xb8769e4d	-5.87984e-05
60	0x3cc8b8f2	0.024502251
61	0xbdd335f3	-0.10313024
62	0xbd1b1d92	-0.037869997
63	0xbdb5f497	-0.088845424

local_net.mul_blocks.0.mlp.fc2.weight f4 [16, 64, 1, 1]
0	0x3306bdb7	3.137185e-08
1	0xb1f9ad3c	-7.2665483e-09
2	0x3c61af74	0.013774741
3	0x32c81f9f	2.3297444e-08
4	0xba2ddd32	-0.0006632387
5	0x3c534a8d	0.012896192
6	0x37aec04b	2.083196e-05
7	0x32ab84d4	1.9967423e-08
8	0x37d1a282	2.4990415e-05
9	0x36754347	3.6547005e-06
10	0xb438a167	-1.7195053e-07
11	0x3bb97145	0.0056592547
12	0xbaa5e3aa	-0.001265635
13	0x3af5bbc6	0.0018747977
14	0xb23b7e02	-1.09134835e-08
15	0x3c204290	0.009781495
16	0x3bc466c1	0.0059936945
17	0x33b5be8c	8.4631296e-08
18	0xb89d0cee	-7.488752e-05
19	0x3af210d9	0.0018468156
20	0x36bcb307	5.623678e-06
21	0x36d1fd40	6.2581676e-06
22	0x3267c5bf	1.3490932e-08
23	0xbc200908	-0.009767778
24	0xb33eb6af	-4.4403972e-08
25	0x38c8eeeb	9.581245e-05
26	0xb71aac37	-9.219212e-06
27	0x3aa7cc95	0.0012802059
28	0x3202a759	7.605046e-09
29	0xb6846c7e	-3.9465367e-06
30	0x3ac1ba44	0.0014780243
31	0xb98f6fa6	-0.0002735827
32	0x398bf9c7	0.00026698245
33	0xb6801132	-3.816699e-06
34	0x3c41c153	0.011825877
35	0xbc4cb0e2	-0.012493344
36	0xb22ab00c	-9.935331e-09
37	0xbb5aa2a3	-0.00333611
38	0x33622bc2	5.2659523e-08
39	0x31a8fdf7	4.918316e-09
40	0x3c1ae216	0.009453317
41	0xb3dbb32a	-1.0230572e-07
42	0x39f54211	0.00046779265
43	0xb1a95f47	-4.929379e-09
44	0x33ef7c7c	1.1151948e-07
45	0x3c2b5590	0.010457411
46	0x3a0d569d	0.00053916295
47	0xb4687221	-2.1648204e-07
48	0x3c2f0b39	0.010683828
49	0xbbd0f7f1	-0.006377213
50	0x34f1acff	4.501562e-07
51	0x3048a95e	7.300026e-10
52	0xbb772c91	-0.0037715773
53	0xb9c315a6	-0.00037209428
54	0xba464383	-0.00075631606
55	0xb2d68fdb	-2.4978297e-08
56	0x32888a6b	1.5895429e-08
57	0x302c739e	6.273754e-10
58	0xbc4be6c4	-0.0124451555
59	0x3b10c7ad	0.0022091672
60	0xb12f8344	-2.5540468e-09
61	0x31640dc7	3.3186198e-09
62	0xbbb620f8	-0.0055581294
63	0xb28ddc20	-1.6514662e-08
64	0x3b1f47a9	0.0024304187
65	0x3c4a80cb	0.012359808
66	0xb382ec18	-6.096542e-08
67	0x3ba2a00e	0.0049629277
68	0x3516973a	5.609942e-07
69	0xbc0dace4	-0.008647177
70	0x3a466812	0.0007568608
71	0x36205b94	2.3895163e-06
72	0x3c6405d0	0.013917401
73	0xb78f8051	-1.710668e-05
74	0xbc0325e3	-0.008004638
75	0xbc5eb7ad	-0.013593596
76	0xbb989fc7	-0.004657719
77	0xbc544370	-0.0129555315
78	0x33147502	3.4565353e-08
79	0xb5b28a8a	-1.3302354e-06
80	0x3b12b403	0.0022385127
81	0x3af4a6ea	0.0018665467
82	0x3c66b5cb	0.014081429
83	0x360abe97	2.067454e-06
84	0x3ab51eaf	0.0013818349
85	0xb38df8ae	-6.611059e-08
86	0x3704e680	7.921481e-06
87	0xbbd48587	-0.0064856443
88	0xb7f9130f	-2.9691988e-05
89	0x3385e759	6.235377e-08
90	0x36d320f7	6.2921276e-06
91	0xbc07b0f2	-0.008281933
92	0xb9ac74b0	-0.00032893335
93	0x39c32503	0.00037220874
94	0x3b7b40f4	0.0038338276
95	0x35d89b6a	1.6138486e-06
96	0x339a9aa3	7.199312e-08
97	0x34032470	1.2213582e-07
98	0xb500a9d1	-4.793083e-07
99	0xb456e751	-2.0014456e-07
100	0xbae5cc6c	-0.0017532236
101	0xb60bc8b7	-2.0829445e-06
102	0x3b7c3a30	0.003848683
103	0x3c11ce84	0.008899335
104	0x3591b5d6	1.0856263e-06
105	0xb2cc58b6	-2.3789067e-08
106	0xba94b17e	-0.0011344401
107	0xb5d2c22a	-1.5702728e-06
108	0xb3c0b55c	-8.973686e-08
109	0xb2b97ce2	-2.1593625e-08
110	0x3464971a	2.1289125e-07
111	0x3c2afbed	0.01043604
112	0x3a127342	0.0005586633
113	0x3a06b56f	0.000513873
114	0xb61f83ac	-2.376949e-06
115	0x33be8dbc	8.873346e-08
116	0xb39b7fc8	-7.240993e-08
117	0x3b51bbb3	0.0032002747
118	0xbb4e8e51	-0.0031517933
119	0xb3f49fa1	-1.1391172e-07
120	0xbc198a6c	-0.009371381
121	0x322c7dd0	1.0040324e-08
122	0x35bc14ce	1.4013146e-06
123	0xb3243bda	-3.823866e-08
124	0x39e191fe	0.00043024117
125	0x3bc427c8	0.0059861876
126	0x3c006929	0.007837572
127	0x3ada22c2	0.0016642439
128	0xbbc0eea9	-0.0058878255
129	0xbb2cadec	-0.0026348783
130	0x3b823830	0.003973983
131	0xb88dfca8	-6.770465e-05
132	0xbb495805	-0.003072263
133	0x383656a3	4.3472868e-05
134	0xb91b0bf0	-0.00014786399
135	0xba4710fd	-0.0007593779
136	0xb457a34c	-2.0082842e-07
137	0x349bcb58	2.9018952e-07
138	0xbb58a607	-0.0033057944
139	0x39f71fb0	0.0004713512
140	0x35002549	4.7737973e-07
141	0x39575f81	0.00020539576
142	0xbb5f5978	-0.0034080427
143	0x38158353	3.5646673e-05
144	0x3bf95762	0.007609294
145	0xb634269b	-2.6844561e-06
146	0xbb162fbd	-0.0022916638
147	0x3a7cf701	0.00096498436
148	0x3a48bb84	0.00076573365
149	0xb674d270	-3.6481324e-06
150	0xbc22dc74	-0.009940255
151	0x3951f438	0.00020022772
152	0xb60c953c	-2.0948492e-06
153	0x3bb0f05f	0.005399748
154	0x3b70eb26	0.0036761253
155	0x3a7330b2	0.00092769705
156	0x3a858317	0.0010186163
157	0x34ac291c	3.2067408e-07
158	0xb49de125	-2.9407343e-07
159	0xbbebde52	-0.0071981335
160	0x389b8b1d	7.416888e-05
161	0x35bbf96f	1.400518e-06
162	0xbab69237	-0.0013929073
163	0xb4c627eb	-3.6909418e-07
164	0x34ec89ab	4.4058592e-07
165	0xbb9d3226	-0.004797238
166	0x3b42a987	0.0029703097
167	0xb4fe3b6b	-4.735442e-07
168	0xbb19de85	-0.002347858
169	0xbb4997dc	-0.0030760681
170	0xb3d10283	-9.732778e-08
171	0x3b859bbf	0.0040774043
172	0xbb37ecca	-0.0028064721
173	0x34033a6c	1.222158e-07
174	0xbb91a5e5	-0.004444825
175	0xb3cebab0	-9.626581e-08
176	0x34363f92	1.6973198e-07
177	0x3c4defc3	0.012569371
178	0x39a57f6a	0.00031566183
179	0x3c1c9879	0.009557837
180	0x34e09b70	4.1836347e-07
181	0xbc5a43f2	-0.0133218635
182	0x34bfaf7d	3.5704207e-07
183	0x35ba0797	1.3860289e-06
184	0xbbb26c03	-0.005445005
185	0x3b83c4fb	0.0040212846
186	0xb535a5c8	-6.7669e-07
187	0x349d59e6	2.9308939e-07
188	0xb4f474f9	-4.553365e-07
189	0xb611a160	-2.1700616e-06
190	0xba82687c	-0.0009949352
191	0x3be48264	0.0069735516
192	0x3888a3c7	6.515491e-05
193	0x3b8d63cc	0.004314875
194	0x3c2beedf	0.010493963
195	0xb96c3e45	-0.00022529911
196	0xb7625413	-1.3490225e-05
197	0xb82d9008	-4.1380554e-05
198	0x38a4400c	7.832059e-05
199	0x381ac54d	3.6900212e-05
200	0xb8bee110	-9.101827e-05
201	0xbc47c29c	-0.012192395
202	0xbb9d6bc6	-0.0048041074
203	0x3bd23497	0.0064149606
204	0xba089aee	-0.00052110746
205	0xbc0867a6	-0.008325493
206	0xbaa63ea6	-0.0012683466
207	0x3b8a8913	0.0042277663
208	0x38f58b7e	0.00011708493
209	0xb8b67cf8	-8.7017135e-05
210	0xbc3643d3	-0.011124569
211	0x3c6602af	0.014038726
212	0x38214a74	3.845473e-05
213	0x37653660	1.3662124e-05
214	0x35e99d9d	1.7405724e-06
215	0xb9de5d31	-0.00042412573
216	0xb8aed9af	-8.337513e-05
217	0x38081ffa	3.2454707e-05
218	0xba50a1fa	-0.00079587067
219	0x38018cd6	3.088716e-05
220	0xb89cf1ba	-7.483685e-05
221	0x3865e857	5.4814238e-05
222	0xb9ec1494	-0.0004502876
223	0xbb21eb20	-0.0024706796
224	0xb8d0b70d	-9.952309e-05
225	0x3885954e	6.3697444e-05
226	0xbbf839c6	-0.0075752465
227	0xb87deb20	-6.0538878e-05
228	0x379482b8	1.7703846e-05
229	0xb675b5d3	-3.661368e-06
230	0x38c8bed2	9.572286e-05
231	0x3c35f2da	0.011105264
232	0xb7ee09d3	-2.8376386e-05
233	0x37800d86	1.5265086e-05
234	0xb909738c	-0.00013108383
235	0x3b71fe0b	0.0036925103
236	0x3864f73a	5.4589684e-05
237	0x3a4b6454	0.00077587855
238	0xbaaedf94	-0.0013341778
239	0xbadc168f	-0.0016791391
240	0xb560a9a6	-8.3693374e-07
241	0xbbefff66	-0.007324147
242	0x3827d9fe	4.0018924e-05
243	0xb7c804b4	-2.3844048e-05
244	0x3c628129	0.0138247395
245	0x3a410bca	0.00073641224
246	0xbb43fc00	-0.0029904842
247	0xbaf6850b	-0.001880796
248	0xb7d67876	-2.5566882e-05
249	0xbb504a7f	-0.0031782684
250	0x3a233146	0.0006225299
251	0x37f36ef0	2.9019517e-05
252	0x3c19b091	0.009380476
253	0xb91ad02d	-0.00014764136
254	0xbb4d1511	-0.0031293074
255	0xb83c145e	-4.484166e-05

local_net.mul_blocks.0.mlp.fc2.bias f4 [16]
0	0x35c0b9f4	1.4359234e-06
1	0xb710acfb	-8.623344e-06
2	0x38864855	6.403091e-05
3	0xbbad0e9b	-0.005281282
4	0xb7d54cf9	-2.5427422e-05
5	0x35ab988a	1.2784888e-06
6	0x3b8093eb	0.003923883
7	0xbbb497f5	-0.0055112788
8	0x3c855261	0.016274633
9	0xbb1fccc1	-0.0024383517
10	0xbad07d82	-0.0015906545
11	0x3c0adcd1	0.008475498
12	0xb7b08f3c	-2.1047534e-05
13	0x3bda2596	0.0066573126
14	0xba2af9f4	-0.0006522231
15	0x3a99c240	0.0011730865

local_net.mul_blocks.1.gamma_1 f4 [1, 16, 1, 1]
0	0xba386160	-0.0007033553
1	0x3a2f6c8c	0.0006691895
2	0xbbb43a2e	-0.0055000996
3	0xbca64df8	-0.02030085
4	0x3c974189	0.018463867
5	0x3ba9e056	0.0051842136
6	0xbc760c9d	-0.015017656
7	0xba171fc5	-0.0005764927
8	0x3b7fe2c4	0.0039045075
9	0xbbd0c4fb	-0.006371138
10	0x3c812c1e	0.015768107
11	0x3c80aa45	0.01570619
12	0x3b4c6abd	0.003119155
13	0xb99cf04c	-0.00029933674
14	0xbc7b9f91	-0.015357868
15	0xb9bd7a1b	-0.00036139865

local_net.mul_blocks.1.gamma_2 f4 [1, 16, 1, 1]
0	0x3a18bacf	0.00058261765
1	0xba7c9ffd	-0.0009636877
2	0xb863993d	-5.426373e-05
3	0x3a2e033c	0.0006638055
4	0xbc6da602	-0.014504911
5	0xb7ba452a	-2.2205135e-05
6	0xb60bdc8a	-2.0840985e-06
7	0x3790e085	1.7270688e-05
8	0x3b276c76	0.0025546825
9	0xbbeeb761	-0.007285044
10	0x383bca73	4.477282e-05
11	0xbc529539	-0.01285296
12	0xb82b4384	-4.0832456e-05
13	0x3a31c978	0.00067820353
14	0xbbb2166f	-0.005434803
15	0xb860fa63	-5.3638953e-05

local_net.mul_blocks.1.pos_embed.weight f4 [16, 1, 3, 3]
0	0xbd595cee	-0.05306714
1	0xbd7b5644	-0.061361566
2	0x3bc92d53	0.0061394363
3	0xbdea254b	-0.11432894
4	0x3e34148a	0.1758596
5	0x3d286cde	0.04111945
6	0x3a15e292	0.00057176605
7	0x3bd9f485	0.0066514635
8	0x3d6a4bb8	0.057201117
9	0x3c171fe2	0.00922391
10	0x3e1ce74a	0.15322605
11	0xbc287fff	-0.010284423
12	0x3b67d9f3	0.003537771
13	0x3db2c608	0.08729178
14	0x3be20148	0.0068971254
15	0x3d6683a4	0.056277886
16	0x3c9ff93a	0.01952802
17	0xbc7b9bf7	-0.015357009
18	0x3be94cc0	0.007119745
19	0x3d0edf72	0.034881063
20	0xbdd62347	-0.10455947
21	0x3c791e56	0.015204987
22	0xbe0fb42d	-0.14033575
23	0x3e0c96cb	0.13729398
24	0xbd6511f1	-0.055925313
25	0x3e0ff600	0.14058685
26	0xbc96f516	-0.018427413
27	0xbd7be84f	-0.061500844
28	0x3e272677	0.16323267
29	0xbd08a7b3	-0.033363055
30	0x3e442a98	0.19156873
31	0xbde8e491	-0.113717206
32	0xbc3e74b7	-0.011624507
33	0xbe1d98a6	-0.15390262
34	0x3d7fa20f	0.06241041
35	0x3dce0b61	0.10060764
36	0xbe5e33dc	-0.2169947
37	0xbe22af92	-0.15887287
38	0x3d7d75e0	0.061879992
39	0xbe598eae	-0.21245834
40	0xbddfb374	-0.109229
41	0xbd3294e1	-0.043599013
42	0x3d3b25ab	0.04569022
43	0x3e7bdc6e	0.24595806
44	0xbe5afdfd	-0.21385951
45	0xbdf78207	-0.120853476
46	0x3dd60793	0.104506634
47	0xbb483918	-0.0030551609
48	0x3e0a5d49	0.13512148
49	0xba090030	-0.0005226163
50	0x3cd5500b	0.026039144
51	0x3e33abee	0.17546055
52	0xba153c4c	-0.0005692884
53	0x3e1db3aa	0.15400568
54	0x3be11af0	0.0068696663
55	0x3da744dd	0.081674315
56	0xbd167aa0	-0.036738038
57	0x3d325663	0.043539416
58	0x3c500f1e	0.012698917
59	0xbdfc1f5c	-0.12310669
60	0x3bd5d2e1	0.006525383
61	0xbe00cab9	-0.12577333
62	0x3de38bc4	0.111106426
63	0xbd8c92f0	-0.068639636
64	0x3d6cfb0d	0.05785661
65	0x3da01bc5	0.078177966
66	0xbe074cd9	-0.13212909
67	0xbca7896c	-0.02045127
68	0x3d60c3d0	0.05487424
69	0xbe1650f6	-0.14679322
70	0xbcdafd76	-0.026732188
71	0x3d144403	0.036197674
72	0x3e86dd40	0.26340675
73	0xbc9ee496	-0.019396108
74	0x3e2ab9a7	0.16672383
75	0xbe3e86e6	-0.18606147
76	0x3db9f639	0.09080166
77	0x3e375618	0.17903936
78	0xbe6704a8	-0.2256037
79	0x3df1fb60	0.11815524
80	0xbe3f4cf2	-0.18681696
81	0x3cfd4cad	0.03092035
82	0xbe016583	-0.1263638
83	0xbda6c2e3	-0.081426404
84	0x3d08c9a4	0.033395424
85	0xbe4f1eb1	-0.20226552
86	0x3e075f62	0.1321998
87	0xbe4db79d	-0.20089574
88	0xbe2d9096	-0.16949686
89	0x3e49b9d7	0.19699799
90	0x3dcb3882	0.099228874
91	0x3e6bd635	0.23030932
92	0x3e1518d6	0.14560255
93	0x3c5e0bcc	0.013552617
94	0x3e556672	0.20839861
95	0x3e2f9673	0.17147236
96	0xbdd9def4	-0.10638228
97	0xbe68c98c	-0.22733134
98	0xbca6c188	-0.020355955
99	0x3d3563e3	0.044284713
100	0x3d09fbdb	0.033687454
101	0x3d6f7667	0.058462527
102	0xbe4e7fab	-0.20165889
103	0x3e2e2464	0.1700607
104	0x3e8645e5	0.262252
105	0xbe0d02e6	-0.13770637
106	0xbe3dd4f4	-0.18538266
107	0x3e46bac2	0.1940718
108	0x3e36c2cb	0.17847745
109	0xbdc09065	-0.09402541
110	0x3de4b3dd	0.11167119
111	0x3d373ee2	0.044737704
112	0xbe3a0d27	-0.1816908
113	0x3cb53f9e	0.022125062
114	0x3d392fe5	0.04521169
115	0xbcb3c739	-0.021945583
116	0xbe156c95	-0.14592202
117	0x3d93cfaf	0.07217347
118	0xbe0524ec	-0.13002366
119	0x3dfe02e7	0.12402897
120	0x3d63e401	0.055637363
121	0x3d18e62f	0.037328895
122	0xbc7e254e	-0.015511824
123	0x3d9e1eae	0.077206954
124	0xbe38d33c	-0.1804933
125	0xbdc832d7	-0.09775322
126	0xbe538615	-0.20656617
127	0xbe5fc7d3	-0.2185357
128	0x3e116379	0.14198102
129	0xbe0c04ed	-0.13673754
130	0x3e588f04	0.21148306
131	0x3e3f1d02	0.1866341
132	0xbe4bdb6b	-0.1990792
133	0xbe2162a3	-0.15760283
134	0x3e8a86e4	0.27056038
135	0x3bf39c19	0.00743438
136	0xbdfc1583	-0.123087905
137	0xbd75d710	-0.060019553
138	0x3dca8eb7	0.09890502
139	0xbe10b6b0	-0.1413219
140	0x3b877e66	0.004134941
141	0x3d55584b	0.052086156
142	0x3db540d2	0.08850254
143	0xbe01d20a	-0.1267778

local_net.mul_blocks.1.pos_embed.bias f4 [16]
0	0xbd075ea5	-0.033049244
1	0x3e8ad05f	0.271121
2	0x3e933708	0.28752923
3	0xbe89ead3	-0.2693697
4	0x3e941ef1	0.28929856
5	0x3e206d53	0.15666704
6	0x3e71678c	0.23574656
7	0x3dabb9ca	0.08385046
8	0x3d03a6c3	0.03214146
9	0xbe82ccc7	-0.25546858
10	0x3e0c9485	0.1372853
11	0x3e075998	0.13217771
12	0xbd5565a0	-0.05209887
13	0x3e1d84ec	0.15382737
14	0x3c8b758a	0.01702382
15	0xbdb17631	-0.08665121

local_net.mul_blocks.1.norm1.alpha f4 [1, 1, 16]
0	0x3f55fc7b	0.8358838
1	0x3f55fb76	0.83586824
2	0x3f55faf9	0.8358608
3	0x3f55fc6d	0.83588296
4	0x3f55f975	0.83583766
5	0x3f55fc0c	0.8358772
6	0x3f55fbdb	0.83587426
7	0x3f55fb3a	0.83586466
8	0x3f55fcdf	0.83588976
9	0x3f55fbbc	0.8358724
10	0x3f55fe00	0.835907
11	0x3f55f90b	0.83583134
12	0x3f55fb72	0.835868
13	0x3f55fb37	0.8358645
14	0x3f55fb60	0.8358669
15	0x3f55fb98	0.83587027

local_net.mul_blocks.1.norm1.beta f4 [1, 1, 16]
0	0x38861f3c	6.395436e-05
1	0xb7d858d5	-2.5790572e-05
2	0xb8998172	-7.3197196e-05
3	0x38d38b19	0.00010087173
4	0xb894e594	-7.099952e-05
5	0x383e6a00	4.539825e-05
6	0x383c8450	4.494592e-05
7	0xb859d170	-5.1931886e-05
8	0x38843c94	6.305534e-05
9	0xb7704344	-1.4320776e-05
10	0x38b479f8	8.605787e-05
11	0xb84bedd1	-4.8620455e-05
12	0xb8840792	-6.2956606e-05
13	0xb8951708	-7.1091636e-05
14	0xb84ec4ae	-4.92974e-05
15	0xb8072240	-3.2218406e-05
