IAT_enhance/best_Epoch_exposure.pth (torch, 427160 bytes, 132 tensors)

local_net.conv1.weight f4 [16, 3, 3, 3]
000000 2d 24 88 bd 99 c6 99 bd 56 89 e1 bd 91 e6 ed 3c
       -0.06647525 -0.075085826 -0.11012523 0.029040607
000010 95 4c bc 3d b0 37 cd 3d e3 ad a9 bc 02 d6 f6 bc
       0.09194294 0.10020387 -0.020712798 -0.030131344
000020 9c 9d a1 3c 36 fe 8d bd 07 01 01 bd c1 47 5c bd
       0.019728474 -0.069332525 -0.03149512 -0.053779367
000030 b5 cd 38 3d bb f5 c1 3d 96 d3 d9 3d 13 1e 8a 3a
       0.045118053 0.094706975 0.1063606 0.0010537527
000040 f9 b7 db bc 4a f4 50 3d 8a 27 04 bd bd 43 6c bd
       -0.026821123 0.051014222 -0.03226427 -0.057681788
000050 01 1d a8 bd 07 95 a2 bb 49 6f 8b 3d 9c f8 ce 3d
       -0.08208657 -0.004961613 0.06808335 0.10106012
000060 c3 85 8f bd 8e 22 88 bd 0c c9 5f 3c 94 dc 3c bc
       -0.07007935 -0.06647216 0.013658773 -0.011527199
000070 35 40 cb bc 0f fa a8 bd 2f 01 83 bd 8e da 31 3d
       -0.02481089 -0.0825082 -0.0639671 0.04342132
000080 6e f8 f8 bc 9f 81 a3 3c 23 a9 ec bd 6c f6 0b be
       -0.030391898 0.01995927 -0.11555698 -0.13668221
000090 1a 22 de 3b 61 c0 64 bd 5f 59 a2 3d b1 3f 70 3d
       0.0067789676 -0.05584753 0.079272024 0.05865449
0000a0 45 0b 9f bc 9c c6 15 3e e1 0d 22 be 11 a8 75 3e
       -0.019414553 0.14626545 -0.15825607 0.23989893
0000b0 b8 83 b8 bd c1 9c 6a 3d b1 07 db 3d 5b b5 55 3d
       -0.09009498 0.0572784 0.106948264 0.052174907
0000c0 ff 8c fa bb be 15 b5 bc 1f d0 3a be 6f 73 41 bd
       -0.0076462026 -0.022105094 -0.18243454 -0.047229227
0000d0 f5 2f 64 bc 9c 2c 4b 3d 41 91 4a bd ab 53 38 3e
       -0.0139274495 0.04960309 -0.04945493 0.18000667
0000e0 cc 98 06 bc 47 50 a1 3c 71 e3 f9 3d 0b 21 88 bd
       -0.008215141 0.0196916 0.12201584 -0.066469274
0000f0 f6 31 8a 3d 24 03 e0 bc 72 eb 37 bd 5d 2d bb ba
       0.067478105 -0.027345248 -0.044902273 -0.0014280487
000100 68 23 b9 bc bc c7 35 bd b6 1f b0 bc 33 8f ed 3c
       -0.02259989 -0.044379935 -0.021499496 0.028998947
000110 4e c8 30 bd 32 9d ea bc 10 2d 72 3d c1 1c 38 be
       -0.043159775 -0.02863941 0.059125006 -0.17979719
000120 d7 38 57 bd ec e1 4c 3d bc d0 97 3c da 18 2b 3d
       -0.05254444 0.050020143 0.01853215 0.041771747
000130 8a 16 0e 3d 1c 8e 11 3d 84 4e ce bc 84 ff f3 bc
       0.034689464 0.035535917 -0.025183924 -0.029784925
000140 34 0d 25 bc 47 4a 94 3d d8 c7 e1 bd a4 fa 5d 3d
       -0.010073949 0.0724073 -0.11024445 0.054194108
000150 48 41 0d 3e 0a 0e ac 3c 3e 1e 9c bc 93 06 43 3e
       0.13794434 0.021002788 -0.01905739 0.19045477
000160 64 17 e6 bc dc c0 4c 3e a7 76 91 bc 6b 74 8c 3d
       -0.028087325 0.19995445 -0.017756773 0.068581425
000170 62 86 04 3d 2e d4 3c 3e 8f fa f8 bb cc e3 8c 3d
       0.03235472 0.18440315 -0.0075982283 0.06879386
000180 2b ee aa 3d 5c 7e 42 3d 76 df 55 3b 1c 3f 20 bd
       0.08346208 0.047483787 0.0032634414 -0.039122686
000190 2b a2 52 bd 4b 1b f6 3c 7d 85 bd 3d f3 8b 94 be
       -0.051424187 0.030042311 0.092539765 -0.29013023
0001a0 de 53 1d be b3 38 2f bc 18 eb 55 3e 05 53 48 3e
       -0.15364024 -0.0106946705 0.20890462 0.1956292
0001b0 34 78 0a 3e c7 64 16 be 25 86 c0 3d 3a 7d 5d 3e
       0.13522416 -0.14686881 0.09400586 0.21629801
0001c0 e5 5e e0 3d 60 ce 1a be 39 04 39 3e 57 f7 1a be
       0.109556 -0.15117788 0.18068017 -0.15133415
0001d0 13 95 6b bd f7 5d b4 bd 84 b7 42 3e 1b b4 0f bc
       -0.057515215 -0.08806985 0.19015318 -0.008770968
0001e0 c1 a6 48 3c 99 b6 1c 3e 56 bc 4d bc dc 49 65 bc
       0.0122467885 0.1530403 -0.01255711 -0.01399466
0001f0 f4 1e 0f 3d e4 91 91 3d 81 22 8e 3d 25 c9 d3 bd
       0.03494163 0.071079046 0.06940175 -0.103411
000200 d8 5d 5e 3e 62 81 df bd 13 b9 9f 3e 7d e1 4e 3d
       0.21715486 -0.1091335 0.31195888 0.05050801
000210 31 17 aa 3d 00 86 11 3c a0 4f 1d bd a1 80 ce 3d
       0.08305205 0.008882046 -0.038406014 0.10083128
000220 11 9c b8 3d 3f 9a 5e bc 4a 56 25 3d 24 9d 22 bd
       0.09014142 -0.01358658 0.040365495 -0.039700642
000230 e7 da b6 bc b3 3b 52 3d 77 e0 ba 3d ee 35 06 3e
       -0.022321178 0.051326465 0.091248445 0.1310651
000240 39 a7 22 be 1f c0 c3 bd 24 15 54 3e e0 16 20 be
       -0.15884103 -0.095581286 0.2071119 -0.15633726
000250 88 74 d3 3c 53 71 01 be 85 75 98 be b2 dd ba bd
       0.025812402 -0.12640886 -0.2977716 -0.09124316
000260 47 62 50 3d 45 56 8d 3c a6 f1 10 3d 54 16 77 bd
       0.050874975 0.01725305 0.035386704 -0.060324028
000270 e5 dd 4f 3e 2c 2d f4 3d aa 53 19 3e 40 fe b9 bc
       0.2029949 0.11922678 0.14973322 -0.022704244
000280 b0 4a 07 3d c6 e4 7c bd 0a e2 ca bc 4a 7a 03 be
       0.033030212 -0.061741613 -0.024765987 -0.12839618
000290 24 b3 af bd fb ea c0 bd f5 19 07 be 3d 18 91 bd
       -0.0857909 -0.09419819 -0.13193496 -0.07084701
0002a0 fd 0d 0c bd a4 e3 78 bd 68 18 cf bc 1f 02 5b bd
       -0.034193028 -0.06076397 -0.025280192 -0.05346882
0002b0 2c 38 03 be 1e 47 7a bd 61 e4 f5 bd 72 74 17 be
       -0.12814397 -0.06110298 -0.120064504 -0.14790514
0002c0 90 a8 75 bd f8 99 47 bd 39 b6 b8 bd dd 53 be bc
       -0.059975207 -0.04873082 -0.09019131 -0.023233349
0002d0 67 90 72 3c 6d b7 a0 bc 86 9f 1f 3d 47 1b ea bc
       0.014804936 -0.019618714 0.038970493 -0.02857746
0002e0 db fa a5 bc 4a 3d b3 3c 6f c4 4c 3c 63 8f 12 bd
       -0.020261219 0.02187981 0.012498005 -0.035781275
0002f0 4e fc 3b 3c fa f1 0f bb 07 57 d3 bb 7c 61 0e bb
       0.011473728 -0.0021964298 -0.0064495835 -0.0021725586
000300 ec e7 22 3d 34 0f 8c 3d f3 c9 8d 3d 80 03 7a bb
       0.03977196 0.06838837 0.069232844 -0.0038149059
000310 2a 92 52 bd 0d 7d a1 bd 90 cb 36 3c b5 63 fc 3c
       -0.051408924 -0.0788518 0.0111569315 0.030809263
000320 d4 f4 ec 3b 4c 0d 96 3d 8c 60 a3 3d 0f 00 b2 3d
       0.007231334 0.07326755 0.07977399 0.086914174
000330 96 16 3a bc f2 cc 40 bd 52 b3 9d bd 0a 33 1c bd
       -0.011357924 -0.04707045 -0.07700218 -0.038134612
000340 60 db 06 bd 81 0d 05 bc ce 2a c0 bb ac f0 75 bc
       -0.032924056 -0.008120895 -0.0058644777 -0.015010994
000350 ad cf 1e 3c b5 b2 38 bd 52 71 9f bd 23 a5 a2 bd
       0.009693068 -0.045092303 -0.07785286 -0.079416536
000360 08 99 cd bd 51 59 c0 3d 01 6b 13 bd 7a af 04 3c
       -0.10038954 0.09392036 -0.03599072 0.0080984775
000370 fd da 8d 3d e2 85 4e 3a d5 14 c1 bd 3e 81 84 3d
       0.06926534 0.00078782265 -0.094278015 0.064699635
000380 a3 4b 0e 3e b8 c1 d1 3b ba 7c b0 3c fd 10 a7 ba
       0.1389604 0.006401267 0.02154385 -0.0012746152
000390 e1 43 99 3d 97 a1 50 3c ed 12 c1 bd 14 9a b4 bd
       0.0748365 0.0127338385 -0.09427438 -0.088184506
0003a0 98 6e b8 bd 37 3a 99 bd 2e 74 dc bd 5f 93 21 bd
       -0.09005469 -0.07481807 -0.10764347 -0.039447185
0003b0 56 4d 62 3c a7 30 43 bd 61 57 ff bd 09 01 14 be
       0.013812384 -0.04765382 -0.12467838 -0.1445352
0003c0 37 1e 03 be 99 fc 98 bd d7 e1 b9 bc 92 65 23 be
       -0.12804495 -0.07470054 -0.022690697 -0.15956715
0003d0 40 4d 84 3d ea 1a d1 bd 53 0b 1e be 63 96 c8 bd
       0.06460047 -0.102102116 -0.15434007 -0.09794309
0003e0 fd 7e c7 bc 2f 2b ad bd 60 a7 e6 bc 77 70 f1 bc
       -0.024352545 -0.08455502 -0.028155982 -0.029472573
0003f0 5d f4 72 bd 67 4c 48 3e 9f 16 3f bc c6 e8 93 3c
       -0.059315074 0.19560395 -0.011663108 0.018055331

local_net.conv1.bias f4 [16]
000000 a4 d0 83 bd 62 38 8f 3b 5b 34 63 bb 34 0a fd bc
       -0.064362794 0.004370735 -0.0034668657 -0.030888654
000010 90 d3 e9 bc 85 f3 af 3c de 2e 7e 3d 61 ca b0 bc
       -0.028543264 0.021478424 0.062056415 -0.021580877
000020 91 8e d0 3a 86 76 a2 bc ec 93 dc bc d6 28 d5 bc
       0.0015911629 -0.019831907 -0.026926003 -0.026020449
000030 52 97 16 3c 66 ec 8e 3d d3 b8 9a 3b 1f 1b ec ba
       0.009191351 0.06978683 0.00472174 -0.0018013454

local_net.mul_blocks.0.gamma_1 f4 [1, 16, 1, 1]
000000 b8 0f 00 00 44 56 00 00 48 66 00 00 bc 25 00 00
       5.639e-42 3.0946e-41 3.6692e-41 1.3537e-41
000010 f2 13 00 80 30 18 00 80 ac 0f 00 00 44 26 00 00
       -7.155e-42 -8.677e-42 5.622e-42 1.3727e-41
000020 9c 0f 00 80 de 3a 00 80 46 37 00 80 f7 4f 00 00
       -5.6e-42 -2.1118e-41 -1.9828e-41 2.8686e-41
000030 e8 25 00 80 1d 3c 00 00 1b 0e 00 00 b5 0f 00 00
       -1.3598e-41 2.1565e-41 5.06e-42 5.635e-42

local_net.mul_blocks.0.gamma_2 f4 [1, 16, 1, 1]
000000 bb 0f 00 00 8c 64 00 80 d8 0f 00 80 09 07 00 00
       5.643e-42 -3.607e-41 -5.684e-42 2.524e-42
000010 7b 60 00 00 c0 10 00 80 85 64 00 00 9f 04 00 00
       3.461e-41 -6.009e-42 3.606e-41 1.658e-42
000020 96 0f 00 80 59 04 00 00 9f 0f 00 00 7e 0f 00 00
       -5.591e-42 1.56e-42 5.604e-42 5.558e-42
000030 a0 0f 00 00 15 10 00 00 3e 4e 00 80 6c 64 00 80
       5.605e-42 5.769e-42 -2.8068e-41 -3.6025e-41

local_net.mul_blocks.0.pos_embed.weight f4 [16, 1, 3, 3]
000000 4a 08 7b b9 58 43 5d b9 7d 46 89 b9 35 81 32 3a
       -0.00023940313 -0.0002110129 -0.00026183194 0.00068094145
000010 21 ae 30 3a b3 de 1e 3a 23 cb 0e b9 03 3c ed b8
       0.00067398144 0.00060604064 -0.0001361785 -0.00011312219
000020 cc d7 33 b9 c2 b3 c5 36 2b 03 4a 37 b9 e0 10 b6
       -0.00017151161 5.891984e-06 1.2040876e-05 -2.1588478e-06
000030 70 ec 28 38 45 69 49 38 78 76 dc 37 e2 bf 80 38
       4.027452e-05 4.8020174e-05 2.628121e-05 6.1392566e-05
000040 b6 ad 95 38 6a ff 6a 38 ff 05 02 3a c3 b2 2e 3b
       7.13723e-05 5.602782e-05 0.000496 0.0026656843
000050 d7 48 98 3a 52 38 d6 3a 22 f6 58 3b 08 ac 0b 3b
       0.0011618388 0.0016343689 0.003310569 0.0021312255
000060 50 08 8a 3a e5 d5 49 3b 27 5f 01 3b ce 3a b7 3c
       0.0010531042 0.0030797657 0.0019740553 0.022366907
000070 77 dd bd 3c 00 c1 96 3c 1d cf ca 3c 3f a3 d5 3c
       0.023176892 0.018402576 0.024756962 0.026078818
000080 09 ce ad 3c 69 fe c3 3c a7 54 d4 3c 49 f8 ae 3c
       0.02121641 0.023925023 0.025919272 0.021358626
000090 f0 0b b1 3c 39 b3 a3 3c 24 50 85 3c 6f 8f a7 3c
       0.021612138 0.019982921 0.016273566 0.020454137
0000a0 0a 9c 99 3c b3 fe 7a 3c f5 71 a0 3c b5 7a 96 3c
       0.018751163 0.015319514 0.019585589 0.018369058
0000b0 d4 ce 78 3c 0c 9c f9 3a f5 bf 2f 3b 62 82 0f 3b
       0.01518603 0.0019043698 0.0026817296 0.0021897783
0000c0 20 d8 07 3b d0 12 37 3b ac 3b 1a 3b c5 b0 ef 3a
       0.0020728186 0.0027934797 0.0023534102 0.0018286934
0000d0 5f 29 1b 3b 9b 8b ec 3a 86 55 27 3a 20 f7 15 3a
       0.0023675782 0.0018046977 0.00063832884 0.00057207234
0000e0 e5 2d 08 3a a4 7c 13 3a 76 2f fc 39 b2 f1 d9 39
       0.0005194827 0.0005626178 0.00048100547 0.00041569542
0000f0 5b c1 00 3a e4 af d3 39 3a bb a6 39 de 37 1d 39
       0.0004911625 0.00040376105 0.00031801482 0.00014993499
000100 d1 c7 14 39 cf 15 14 39 00 dc c2 3a 0c e9 c0 3a
       0.00014188817 0.00014122504 0.001486659 0.0014717891
000110 37 57 bf 3a e4 a1 a7 b9 58 35 ab b9 79 6b aa b9
       0.0014598136 -0.0003197334 -0.00032655406 -0.00032505
000120 40 38 36 39 fc e0 84 39 cb 3f 78 39 81 85 5a 39
       0.00017377827 0.00025344628 0.00023674888 0.00020839834
000130 4f 26 98 39 9a 8e 8e 39 fd 0a 5f 39 63 8f 9c 39
       0.0002902024 0.00027190597 0.0002127103 0.0002986147
000140 fa 31 91 39 3c 25 9e b8 d2 38 85 3a 42 50 80 b6
       0.0002769379 -7.5409625e-05 0.0010164028 -3.8240405e-06
000150 b8 d6 4c b8 64 26 8e 3a 14 a5 b3 37 16 c9 49 b8
       -4.8837363e-05 0.0010845182 2.1415333e-05 -4.810941e-05
000160 46 61 95 3a 6f f5 00 38 95 a8 06 b8 2e b0 ee 37
       0.0011396788 3.0746156e-05 -3.2105094e-05 2.8453851e-05
000170 75 cd 8b b8 0c 86 cb 38 58 2e 22 39 89 16 79 38
       -6.666306e-05 9.7047625e-05 0.00015466788 5.9387214e-05
000180 80 fe 0b 39 8f d0 4b 39 9f 3b d3 38 0a 5c 1e 39
       0.00013350882 0.00019437283 0.00010072369 0.00015102341
000190 73 90 46 39 6c 36 54 39 e3 7d 1f 39 9d bf 46 39
       0.00018936563 0.00020238169 0.00015210318 0.00018954133
0001a0 06 e0 54 39 87 c9 06 38 52 14 94 38 04 3e b2 38
       0.00020301351 3.2135777e-05 7.060975e-05 8.499253e-05
0001b0 20 d5 b6 ba 0f 89 88 ba 38 c8 a7 ba d4 ea ad b9
       -0.0013949014 -0.0010416823 -0.0012800759 -0.00033172092
0001c0 b8 17 3e b8 73 34 bc b9 17 0c 57 ba bb 63 0b ba
       -4.532162e-05 -0.00035897232 -0.00082034006 -0.000531729
0001d0 f9 f4 64 ba b5 0d 23 3a ec dd 36 3a e7 88 3a 3a
       -0.00087340135 0.0006219999 0.0006975818 0.0007115737
0001e0 fa 13 0e 3a 22 d3 20 3a 77 5b 23 3a 1c 33 e3 39
       0.0005419847 0.0006134977 0.0006231586 0.00043334893
0001f0 ed 96 07 3a b1 ee 07 3a ab eb 68 3a 06 78 2d 3b
       0.0005172331 0.0005185409 0.0008885215 0.0026469245
000200 ac 60 93 3a 48 75 7c 3a b2 6a 37 3b db 7f a1 3a
       0.001124402 0.00096305134 0.002798718 0.0012321429
000210 29 5d 6c 3a cf 21 39 3b 97 a6 94 3a 78 17 9a b8
       0.00090165675 0.0028248911 0.0011341152 -7.3476636e-05
000220 9c 5e 58 38 e2 35 a0 39 fc 72 46 39 39 9a a6 39
       5.1586525e-05 0.00030557724 0.00018925586 0.00031776892
000230 87 52 1a 3a 22 14 27 39 5c ac 99 39 fc 22 16 3a
       0.00058869313 0.00015933861 0.00029310852 0.0005727259

local_net.mul_blocks.0.pos_embed.bias f4 [16]
000000 f5 f1 2c 3c 0b dd 9f 3a 79 51 45 3d 0d 39 d7 3c
       0.010555734 0.0012196613 0.0481734 0.026272321
000010 b8 8f 31 3d b3 7e 13 3d de d9 38 38 e8 15 89 3b
       0.04334995 0.0360095 4.4071923e-05 0.0041835196
000020 6e 8b 68 3b d5 b6 6d 3b 43 03 90 3b 5f 1b d7 3b
       0.0035483497 0.0036272306 0.00439492 0.006564542
000030 fb d9 14 bc 5d 7a 90 ba ba 5a 97 bb 20 0e c8 3b
       -0.009085174 -0.0011022795 -0.0046189697 0.0061051995

local_net.mul_blocks.0.norm1.alpha f4 [1, 1, 16]
000000 a8 0f 00 80 8f 0f 00 00 a1 59 00 80 ac 5a 00 00
       -5.616e-42 5.581e-42 -3.2153e-41 3.2527e-41
000010 82 04 00 80 90 0f 00 80 7e 0f 00 80 b8 0f 00 00
       -1.617e-42 -5.583e-42 -5.558e-42 5.639e-42
000020 94 0f 00 00 78 37 00 00 c3 5c 00 00 69 26 00 00
       5.588e-42 1.9898e-41 3.3277e-41 1.3779e-41
000030 bf 0f 00 00 9f 0f 00 00 43 43 00 80 1a 1b 00 80
       5.649e-42 5.604e-42 -2.4129e-41 -9.722e-42

local_net.mul_blocks.0.norm1.beta f4 [1, 1, 16]
000000 a5 0f 00 80 96 0f 00 80 a0 0f 00 80 7f 0f 00 00
       -5.612e-42 -5.591e-42 -5.605e-42 5.559e-42
000010 38 64 00 00 94 0f 00 80 b8 0f 00 00 b3 0f 00 00
       3.5952e-41 -5.588e-42 5.639e-42 5.632e-42
000020 a8 0f 00 80 9c 34 00 00 fd 64 00 80 91 0f 00 00
       -5.616e-42 1.8873e-41 -3.6228e-41 5.584e-42
000030 e1 2b 00 80 02 5a 00 00 bf 65 00 00 7e 0f 00 80
       -1.5741e-41 3.2289e-41 3.65e-41 -5.558e-42

local_net.mul_blocks.0.norm1.color f4 [16, 16]
000000 87 56 00 00 e6 0c 00 00 b4 0f 00 00 ca 4f 00 00
       3.104e-41 4.627e-42 5.633e-42 2.8623e-41
000010 c3 64 00 80 59 34 00 80 9c 1a 00 80 7e 0f 00 80
       -3.6146e-41 -1.8779e-41 -9.546e-42 -5.558e-42
000020 e9 3e 00 00 2e 26 00 80 f5 65 00 80 ab 64 00 80
       2.2568e-41 -1.3696e-41 -3.6575e-41 -3.6113e-41
000030 7c 0f 00 80 8d 0f 00 00 b6 5c 00 00 18 42 00 80
       -5.555e-42 5.579e-42 3.3258e-41 -2.371e-41
000040 91 0f 00 00 be 0f 00 80 57 14 00 80 b2 0f 00 80
       5.584e-42 -5.647e-42 -7.297e-42 -5.63e-42
000050 67 35 00 80 bb 0f 00 80 b4 64 00 80 ee 5c 00 80
       -1.9157e-41 -5.643e-42 -3.6125e-41 -3.3337e-41
000060 62 64 00 00 20 28 00 80 fc 25 00 80 80 0f 00 80
       3.601e-41 -1.4394e-41 -1.3626e-41 -5.56e-42
000070 f5 5c 00 80 02 0d 00 80 be 0f 00 80 96 0f 00 00
       -3.3347e-41 -4.666e-42 -5.647e-42 5.591e-42
000080 a6 0f 00 00 cd 4f 00 80 79 0f 00 00 dd 0b 00 80
       5.614e-42 -2.8627e-41 5.55e-42 -4.256e-42
000090 a4 04 00 00 3d 26 00 80 03 66 00 80 8e 0f 00 00
       1.665e-42 -1.3717e-41 -3.6595e-41 5.58e-42
0000a0 b4 0f 00 00 db 65 00 80 85 0f 00 00 ff 25 00 80
       5.633e-42 -3.6539e-41 5.567e-42 -1.363e-41
0000b0 a3 0f 00 80 9e 0f 00 00 9d 04 00 80 4e 25 00 80
       -5.61e-42 5.602e-42 -1.655e-42 -1.3382e-41
0000c0 eb 5e 00 00 ab 0f 00 80 bf 24 00 00 86 0f 00 00
       3.405e-41 -5.62e-42 1.3182e-41 5.569e-42
0000d0 85 37 00 80 d7 37 00 80 bf 0f 00 00 ad 0f 00 00
       -1.9917e-41 -2.0032e-41 5.649e-42 5.623e-42
0000e0 bf 0f 00 80 c0 0f 00 80 96 0f 00 00 83 0f 00 80
       -5.649e-42 -5.65e-42 5.591e-42 -5.565e-42
0000f0 96 41 00 00 26 26 00 00 8f 0f 00 80 be 37 00 80
       2.3528e-41 1.3685e-41 -5.581e-42 -1.9997e-41
000100 74 56 00 80 6b 65 00 80 7f 0f 00 00 82 0f 00 00
       -3.1014e-41 -3.6382e-41 5.559e-42 5.563e-42
000110 7e 0f 00 00 c4 4f 00 00 85 0f 00 00 81 04 00 00
       5.558e-42 2.8615e-41 5.567e-42 1.616e-42
000120 70 64 00 00 95 0f 00 80 bc 0f 00 00 95 64 00 00
       3.603e-41 -5.59e-42 5.644e-42 3.6082e-41
000130 b5 0f 00 00 8c 0f 00 00 9d 0f 00 00 ab 0f 00 80
       5.635e-42 5.577e-42 5.601e-42 -5.62e-42
000140 8a 0f 00 00 f4 59 00 80 cb 0b 00 00 2b 26 00 00
       5.574e-42 -3.2269e-41 4.23e-42 1.3692e-41
000150 29 26 00 80 2c 5a 00 00 fb 5c 00 00 a6 65 00 80
       -1.3689e-41 3.2348e-41 3.3355e-41 -3.6465e-41
000160 3c 53 00 80 89 0f 00 80 15 2f 00 80 06 1b 00 80
       -2.9859e-41 -5.573e-42 -1.689e-41 -9.694e-42
000170 ca 65 00 00 cd 5c 00 00 a2 37 00 00 d1 4f 00 00
       3.6515e-41 3.329e-41 1.9957e-41 2.8633e-41
000180 7e 0f 00 80 a7 0f 00 80 b8 34 00 80 bb 0f 00 00
       -5.558e-42 -5.615e-42 -1.8912e-41 5.643e-42
000190 a9 64 00 80 b2 0f 00 80 78 0f 00 00 1f 42 00 80
       -3.611e-41 -5.63e-42 5.549e-42 -2.372e-41
0001a0 e4 3f 00 80 95 0f 00 00 6a 64 00 00 c4 5c 00 00
       -2.292e-41 5.59e-42 3.6022e-41 3.3278e-41
0001b0 67 12 00 80 15 2f 00 00 b5 0f 00 80 6e 26 00 00
       -6.602e-42 1.689e-41 -5.635e-42 1.3786e-41
0001c0 f4 56 00 00 25 05 00 80 73 24 00 80 a3 0f 00 00
       3.1193e-41 -1.846e-42 -1.3076e-41 5.61e-42
0001d0 37 26 00 80 b1 04 00 00 7c 0f 00 80 62 24 00 00
       -1.3709e-41 1.683e-42 -5.555e-42 1.3052e-41
0001e0 cc 35 00 00 98 0f 00 80 b1 5b 00 80 ab 0f 00 00
       1.9299e-41 -5.594e-42 -3.2893e-41 5.62e-42
0001f0 96 0f 00 00 86 0f 00 80 c7 34 00 00 9c 5a 00 00
       5.591e-42 -5.569e-42 1.8933e-41 3.2505e-41
000200 81 0f 00 00 bf 0f 00 80 af 0f 00 80 8e 0f 00 00
       5.562e-42 -5.649e-42 -5.626e-42 5.58e-42
000210 8f 0f 00 00 7f 0f 00 80 8b 0f 00 80 dc 04 00 80
       5.581e-42 -5.559e-42 -5.576e-42 -1.743e-42
000220 8a 0f 00 00 5c 26 00 00 cd 56 00 00 b1 0f 00 00
       5.574e-42 1.3761e-41 3.1138e-41 5.629e-42
000230 b6 0f 00 00 aa 0f 00 00 98 0f 00 80 bc 0f 00 80
       5.636e-42 5.619e-42 -5.594e-42 -5.644e-42
000240 98 0f 00 00 0a 2b 00 00 a3 21 00 00 bd 08 00 00
       5.594e-42 1.544e-41 1.2067e-41 3.135e-42
000250 92 0f 00 80 87 0f 00 00 af 5c 00 80 a8 0f 00 00
       -5.586e-42 5.57e-42 -3.3249e-41 5.616e-42
000260 35 50 00 80 96 0f 00 80 cd 65 00 80 1e 26 00 80
       -2.8773e-41 -5.591e-42 -3.6519e-41 -1.3674e-41
000270 c0 36 00 00 b5 0f 00 00 1a 26 00 00 79 32 00 80
       1.964e-41 5.635e-42 1.3668e-41 -1.8106e-41
000280 de 0a 00 80 1e 1b 00 80 91 0f 00 00 e1 59 00 80
       -3.898e-42 -9.728e-42 5.584e-42 -3.2242e-41
000290 bc 0f 00 80 2e 25 00 00 1a 57 00 00 0e 50 00 80
       -5.644e-42 1.3338e-41 3.1246e-41 -2.8718e-41
0002a0 a5 0f 00 80 95 0f 00 80 a5 0f 00 00 79 0f 00 00
       -5.612e-42 -5.59e-42 5.612e-42 5.55e-42
0002b0 e9 5c 00 00 48 1b 00 80 8d 0f 00 00 9f 64 00 80
       3.333e-41 -9.787e-42 5.579e-42 -3.6096e-41
0002c0 ab 0f 00 80 a5 0c 00 00 7e 04 00 80 43 66 00 00
       -5.62e-42 4.536e-42 -1.611e-42 3.6685e-41
0002d0 0b 26 00 80 80 0f 00 80 9b 0f 00 80 a5 0f 00 80
       -1.3647e-41 -5.56e-42 -5.598e-42 -5.612e-42
0002e0 bf 0f 00 80 04 42 00 00 2f 69 00 00 af 24 00 00
       -5.649e-42 2.3682e-41 3.7733e-41 1.316e-41
0002f0 a2 0f 00 00 01 50 00 80 7e 26 00 80 e1 25 00 80
       5.608e-42 -2.87e-41 -1.3808e-41 -1.3588e-41
000300 a4 0f 00 00 5b 65 00 80 59 69 00 80 84 0f 00 00
       5.611e-42 -3.636e-41 -3.7792e-41 5.566e-42
000310 7f 64 00 00 8e 0f 00 80 b9 0f 00 00 1a 35 00 80
       3.6051e-41 -5.58e-42 5.64e-42 -1.9049e-41
000320 81 0f 00 00 ef 1d 00 00 ed 5c 00 80 97 0f 00 80
       5.562e-42 1.0738e-41 -3.3335e-41 -5.593e-42
000330 2f 26 00 00 b7 0f 00 80 e4 65 00 00 7c 0f 00 80
       1.3698e-41 -5.637e-42 3.6551e-41 -5.555e-42
000340 7e 64 00 80 7d 64 00 00 8f 04 00 80 a0 65 00 00
       -3.605e-41 3.6048e-41 -1.635e-42 3.6456e-41
000350 9e 0f 00 80 07 1b 00 80 86 0f 00 80 a5 0f 00 00
       -5.602e-42 -9.696e-42 -5.569e-42 5.612e-42
000360 97 0f 00 80 88 0f 00 00 42 25 00 00 be 0f 00 80
       -5.593e-42 5.572e-42 1.3366e-41 -5.647e-42
000370 10 05 00 80 ae 65 00 80 ec 23 00 80 ad 0f 00 80
       -1.816e-42 -3.6476e-41 -1.2886e-41 -5.623e-42
000380 0f 5a 00 80 a7 0f 00 80 ea 25 00 00 9e 0f 00 00
       -3.2307e-41 -5.615e-42 1.3601e-41 5.602e-42
000390 fe 3e 00 80 77 1b 00 80 0a 57 00 00 78 37 00 00
       -2.2597e-41 -9.853e-42 3.1224e-41 1.9898e-41
0003a0 ba 0f 00 00 14 5d 00 00 bc 0f 00 00 b2 4f 00 80
       5.642e-42 3.339e-41 5.644e-42 -2.8589e-41
0003b0 ac 2c 00 00 c1 0f 00 80 9d 69 00 00 3e 69 00 80
       1.6025e-41 -5.651e-42 3.7887e-41 -3.7754e-41
0003c0 9d 0f 00 00 97 0f 00 80 a4 0f 00 00 77 0f 00 80
       5.601e-42 -5.593e-42 5.611e-42 -5.548e-42
0003d0 b7 0f 00 00 be 34 00 00 ae 0f 00 00 9d 64 00 80
       5.637e-42 1.892e-41 5.625e-42 -3.6093e-41
0003e0 a9 0f 00 00 c6 64 00 00 ba 0f 00 80 b8 64 00 00
       5.618e-42 3.615e-41 -5.642e-42 3.6131e-41
0003f0 35 5a 00 80 b3 0f 00 80 6f 37 00 80 87 0f 00 80
       -3.236e-41 -5.632e-42 -1.9886e-41 -5.57e-42

local_net.mul_blocks.0.conv1.bias f4 [16]
000000 a6 0f 00 80 41 56 00 80 bf 0f 00 00 a6 0f 00 00
       -5.614e-42 -3.0942e-41 5.649e-42 5.614e-42
000010 b8 0f 00 00 59 26 00 00 c1 56 00 00 63 14 00 00
       5.639e-42 1.3757e-41 3.1121e-41 7.313e-42
000020 b6 0f 00 80 8c 2e 00 00 a4 0f 00 00 92 0f 00 80
       -5.636e-42 1.6698e-41 5.611e-42 -5.586e-42
000030 44 26 00 00 be 0f 00 80 36 26 00 80 d4 65 00 00
       1.3727e-41 -5.647e-42 -1.3708e-41 3.6529e-41

local_net.mul_blocks.0.conv2.bias f4 [16]
000000 7a 0f 00 00 b2 0f 00 00 51 66 00 00 71 45 00 80
       5.552e-42 5.63e-42 3.6704e-41 -2.4911e-41
000010 2b 3c 00 00 b5 5d 00 00 9d 34 00 00 b6 64 00 80
       2.1584e-41 3.3616e-41 1.8874e-41 -3.6128e-41
000020 c3 0f 00 00 be 0f 00 00 02 05 00 00 7f 53 00 80
       5.654e-42 5.647e-42 1.796e-42 -2.9953e-41
000030 0a 4d 00 80 a2 17 00 00 67 02 00 80 06 57 00 00
       -2.7636e-41 8.478e-42 -8.62e-43 3.1218e-41

local_net.mul_blocks.0.attn.bias f4 [16]
000000 78 0f 00 80 a7 5c 00 80 96 0f 00 00 7b 0f 00 00
       -5.549e-42 -3.3237e-41 5.591e-42 5.553e-42
000010 62 69 00 00 e7 64 00 00 84 0f 00 00 a7 64 00 80
       3.7804e-41 3.6197e-41 5.566e-42 -3.6107e-41
000020 9c 5a 00 80 bc 5a 00 00 7d 0f 00 80 96 0f 00 80
       -3.2505e-41 3.255e-41 -5.556e-42 -5.591e-42
000030 7f 0f 00 00 41 5a 00 00 a3 0f 00 80 fa 24 00 80
       5.559e-42 3.2377e-41 -5.61e-42 -1.3265e-41

local_net.mul_blocks.0.norm2.alpha f4 [1, 1, 16]
000000 19 26 00 00 91 0f 00 00 91 0f 00 80 95 64 00 80
       1.3667e-41 5.584e-42 -5.584e-42 -3.6082e-41
000010 ba 5c 00 80 6c 64 00 80 b2 0f 00 00 7c 0f 00 00
       -3.3264e-41 -3.6025e-41 5.63e-42 5.555e-42
000020 c4 1b 00 80 94 0f 00 00 9b 0f 00 00 30 4e 00 80
       -9.96e-42 5.588e-42 5.598e-42 -2.8048e-41
000030 ae 0f 00 00 e5 41 00 00 7e 0f 00 00 bc 34 00 80
       5.625e-42 2.3639e-41 5.558e-42 -1.8918e-41

local_net.mul_blocks.0.norm2.beta f4 [1, 1, 16]
000000 b3 0f 00 00 b0 34 00 00 78 64 00 80 a6 0f 00 80
       5.632e-42 1.8901e-41 -3.6041e-41 -5.614e-42
000010 78 0f 00 00 27 64 00 80 34 66 00 80 8a 65 00 80
       5.549e-42 -3.5928e-41 -3.6664e-41 -3.6425e-41
000020 ca 3d 00 00 a4 5b 00 80 7c 0f 00 80 c9 5c 00 80
       2.2166e-41 -3.2874e-41 -5.555e-42 -3.3285e-41
000030 ff 25 00 80 9a 0f 00 00 b1 56 00 80 bd 0f 00 00
       -1.363e-41 5.597e-42 -3.1099e-41 5.646e-42

local_net.mul_blocks.0.norm2.color f4 [16, 16]
000000 7f 0f 00 80 83 37 00 00 80 0f 00 80 af 0f 00 00
       -5.559e-42 1.9914e-41 -5.56e-42 5.626e-42
000010 0d 38 00 00 9e 0f 00 80 51 53 00 80 bc 0f 00 80
       2.0107e-41 -5.602e-42 -2.9888e-41 -5.644e-42
000020 85 56 00 00 a7 0f 00 80 a4 69 00 00 b2 34 00 80
       3.1037e-41 -5.615e-42 3.7897e-41 -1.8904e-41
000030 bd 04 00 00 9d 0f 00 80 85 59 00 00 a0 0f 00 80
       1.7e-42 -5.601e-42 3.2114e-41 -5.605e-42
000040 5a 14 00 00 4a 35 00 80 bc 0f 00 80 b7 56 00 00
       7.301e-42 -1.9117e-41 -5.644e-42 3.1107e-41
000050 62 65 00 80 2d 53 00 80 7f 0f 00 80 bf 0f 00 80
       -3.637e-41 -2.9838e-41 -5.559e-42 -5.649e-42
000060 85 34 00 80 31 26 00 80 8d 65 00 00 a2 5c 00 80
       -1.884e-41 -1.37e-41 3.643e-41 -3.323e-41
000070 af 0f 00 00 be 0f 00 00 96 08 00 80 a8 0f 00 80
       5.626e-42 5.647e-42 -3.08e-42 -5.616e-42
000080 97 37 00 00 7c 0f 00 80 ba 0f 00 80 b6 0f 00 80
       1.9942e-41 -5.555e-42 -5.642e-42 -5.636e-42
000090 c2 5c 00 00 b6 04 00 80 49 37 00 00 a3 0f 00 80
       3.3275e-41 -1.69e-42 1.9833e-41 -5.61e-42
0000a0 80 0f 00 00 f5 24 00 80 f7 65 00 00 ba 0f 00 80
       5.56e-42 -1.3258e-41 3.6578e-41 -5.642e-42
0000b0 f3 4d 00 80 ac 0f 00 00 82 26 00 00 f2 64 00 00
       -2.7963e-41 5.622e-42 1.3814e-41 3.6212e-41
0000c0 ff 25 00 00 29 26 00 00 ac 0f 00 80 b0 0f 00 00
       1.363e-41 1.3689e-41 -5.622e-42 5.628e-42
0000d0 9d 37 00 80 4e 5a 00 00 87 0f 00 80 8a 0f 00 00
       -1.995e-41 3.2395e-41 -5.57e-42 5.574e-42
0000e0 8c 04 00 80 c0 0f 00 00 d9 25 00 00 9f 5a 00 00
       -1.631e-42 5.65e-42 1.3577e-41 3.2509e-41
0000f0 a1 0f 00 00 d1 65 00 80 f8 44 00 80 dd 2a 00 00
       5.607e-42 -3.6525e-41 -2.4741e-41 1.5376e-41
000100 2c 5a 00 80 90 64 00 00 bd 42 00 80 7a 0f 00 00
       -3.2348e-41 3.6075e-41 -2.3941e-41 5.552e-42
000110 8c 41 00 80 54 50 00 80 b7 0f 00 00 bf 5c 00 00
       -2.3514e-41 -2.8816e-41 5.637e-42 3.3271e-41
000120 91 0f 00 80 92 0f 00 80 8c 04 00 80 90 24 00 00
       -5.584e-42 -5.586e-42 -1.631e-42 1.3116e-41
000130 41 37 00 80 ec 4f 00 00 07 57 00 80 7e 64 00 00
       -1.9821e-41 2.867e-41 -3.122e-41 3.605e-41
000140 8a 0f 00 80 e2 56 00 00 a0 0f 00 00 8d 0f 00 00
       -5.574e-42 3.1168e-41 5.605e-42 5.579e-42
000150 8a 41 00 00 bb 64 00 80 0a 53 00 80 8e 0f 00 00
       2.3511e-41 -3.6135e-41 -2.9789e-41 5.58e-42
000160 b0 0f 00 00 09 5d 00 00 a1 25 00 80 81 56 00 00
       5.628e-42 3.3375e-41 -1.3499e-41 3.1032e-41
000170 74 64 00 00 ba 0f 00 80 b7 0f 00 80 4b 37 00 80
       3.6036e-41 -5.642e-42 -5.637e-42 -1.9835e-41
000180 20 42 00 80 b2 0f 00 80 9f 21 00 80 d3 5c 00 80
       -2.3721e-41 -5.63e-42 -1.2061e-41 -3.3299e-41
000190 5b 04 00 00 fc 5c 00 00 83 0f 00 00 b7 5c 00 00
       1.562e-42 3.3357e-41 5.565e-42 3.326e-41
0001a0 b3 0f 00 00 a8 0f 00 00 fa 41 00 00 6b 65 00 80
       5.632e-42 5.616e-42 2.3668e-41 -3.6382e-41
0001b0 b3 56 00 80 99 0f 00 80 80 04 00 00 bb 0f 00 00
       -3.1102e-41 -5.595e-42 1.614e-42 5.643e-42
0001c0 77 0f 00 00 88 0f 00 80 ac 0f 00 80 aa 0f 00 00
       5.548e-42 -5.572e-42 -5.622e-42 5.619e-42
0001d0 a1 0f 00 00 a0 0f 00 80 b9 0f 00 80 09 25 00 00
       5.607e-42 -5.605e-42 -5.64e-42 1.3286e-41
0001e0 c6 25 00 00 2e 64 00 80 9f 0f 00 80 22 42 00 00
       1.355e-41 -3.5938e-41 -5.604e-42 2.3724e-41
0001f0 38 26 00 80 01 66 00 80 b9 0f 00 00 66 64 00 80
       -1.371e-41 -3.6592e-41 5.64e-42 -3.6016e-41
000200 bf 0f 00 00 a7 64 00 00 a0 0f 00 00 3b 05 00 00
       5.649e-42 3.6107e-41 5.605e-42 1.876e-42
000210 f9 56 00 80 49 64 00 80 bb 0f 00 00 2f 4e 00 80
       -3.12e-41 -3.5976e-41 5.643e-42 -2.8047e-41
000220 89 0f 00 80 9a 0f 00 00 7b 24 00 00 b8 0f 00 80
       -5.573e-42 5.597e-42 1.3087e-41 -5.639e-42
000230 d3 5c 00 80 f2 5c 00 80 0f 26 00 00 9d 0f 00 00
       -3.3299e-41 -3.3342e-41 1.3653e-41 5.601e-42
000240 88 0f 00 00 b9 0f 00 00 80 0f 00 80 5f 65 00 80
       5.572e-42 5.64e-42 -5.56e-42 -3.6365e-41
000250 00 42 00 00 99 0f 00 80 93 0f 00 80 b5 0f 00 80
       2.3676e-41 -5.595e-42 -5.587e-42 -5.635e-42
000260 96 41 00 80 a7 0f 00 80 89 0f 00 00 4c 0e 00 80
       -2.3528e-41 -5.615e-42 5.573e-42 -5.129e-42
000270 7d 37 00 00 92 0f 00 00 7c 0f 00 00 03 66 00 80
       1.9905e-41 5.586e-42 5.555e-42 -3.6595e-41
000280 66 04 00 80 9e 0f 00 80 8f 0f 00 00 c3 64 00 00
       -1.578e-42 -5.602e-42 5.581e-42 3.6146e-41
000290 bc 0f 00 00 96 0f 00 00 79 56 00 00 6c 68 00 00
       5.644e-42 5.591e-42 3.102e-41 3.746e-41
0002a0 93 0f 00 80 97 0f 00 80 81 0f 00 80 af 0f 00 80
       -5.587e-42 -5.593e-42 -5.562e-42 -5.626e-42
0002b0 7d 0f 00 00 7c 34 00 80 9d 21 00 80 ac 0f 00 00
       5.556e-42 -1.8828e-41 -1.2058e-41 5.622e-42
0002c0 25 42 00 00 af 0f 00 00 58 37 00 00 6e 56 00 00
       2.3728e-41 5.626e-42 1.9854e-41 3.1005e-41
0002d0 a6 0f 00 80 b5 0f 00 00 b8 0f 00 80 87 0f 00 00
       -5.614e-42 5.635e-42 -5.639e-42 5.57e-42
0002e0 be 0f 00 80 eb 2a 00 00 ea 04 00 80 7d 0f 00 00
       -5.647e-42 1.5396e-41 -1.763e-42 5.556e-42
0002f0 73 64 00 80 d1 5c 00 80 81 34 00 00 a2 5c 00 80
       -3.6034e-41 -3.3296e-41 1.8835e-41 -3.323e-41
000300 40 05 00 00 a6 0f 00 80 35 69 00 00 7a 0f 00 00
       1.883e-42 -5.614e-42 3.7741e-41 5.552e-42
000310 8c 0f 00 00 8c 0f 00 00 ae 0f 00 80 6b 24 00 00
       5.577e-42 5.577e-42 -5.625e-42 1.3064e-41
000320 81 0f 00 80 9a 0f 00 00 b7 0f 00 00 b2 0f 00 00
       -5.562e-42 5.597e-42 5.637e-42 5.63e-42
000330 ab 0f 00 00 20 50 00 00 bc 0f 00 80 ab 0f 00 00
       5.62e-42 2.8743e-41 -5.644e-42 5.62e-42
000340 46 69 00 00 ea 56 00 80 4c 53 00 00 ab 5c 00 80
       3.7765e-41 -3.1179e-41 2.9881e-41 -3.3243e-41
000350 b4 04 00 80 84 0f 00 80 57 14 00 80 be 34 00 00
       -1.687e-42 -5.566e-42 -7.297e-42 1.892e-41
000360 7f 0f 00 00 a1 0f 00 00 4f 26 00 80 79 64 00 80
       5.559e-42 5.607e-42 -1.3743e-41 -3.6043e-41
000370 90 0f 00 00 bc 0f 00 00 8b 69 00 80 16 11 00 80
       5.583e-42 5.644e-42 -3.7862e-41 -6.129e-42
000380 55 64 00 00 be 0f 00 00 72 37 00 80 c3 0f 00 80
       3.5992e-41 5.647e-42 -1.989e-41 -5.654e-42
000390 df 65 00 00 c0 59 00 80 b6 0f 00 00 b5 0f 00 00
       3.6544e-41 -3.2196e-41 5.636e-42 5.635e-42
0003a0 92 0f 00 80 19 66 00 80 b2 0f 00 00 5e 53 00 80
       -5.586e-42 -3.6626e-41 5.63e-42 -2.9907e-41
0003b0 82 0f 00 80 cd 64 00 80 ed 3e 00 00 97 64 00 00
       -5.563e-42 -3.616e-41 2.2574e-41 3.6085e-41
0003c0 64 0f 00 00 b8 0f 00 00 dc 1a 00 80 9b 04 00 80
       5.521e-42 5.639e-42 -9.635e-42 -1.652e-42
0003d0 e5 50 00 80 bc 0f 00 00 a6 0f 00 00 a0 21 00 00
       -2.902e-41 5.644e-42 5.614e-42 1.2062e-41
0003e0 7f 0f 00 80 bb 0f 00 80 ff 5c 00 00 0f 5a 00 00
       -5.559e-42 -5.643e-42 3.3361e-41 3.2307e-41
0003f0 e7 2e 00 80 7e 53 00 00 06 1b 00 00 37 64 00 80
       -1.6825e-41 2.9951e-41 9.694e-42 -3.595e-41

local_net.mul_blocks.0.mlp.fc1.bias f4 [64]
000000 b0 0f 00 80 3b 1b 00 80 3f 56 00 00 9f 5c 00 80
       -5.628e-42 -9.768e-42 3.0939e-41 -3.3226e-41
000010 b3 34 00 00 83 0f 00 80 09 42 00 00 8f 0f 00 00
       1.8905e-41 -5.565e-42 2.3689e-41 5.581e-42
000020 86 0f 00 00 85 58 00 80 7c 0f 00 00 c5 65 00 00
       5.569e-42 -3.1755e-41 5.555e-42 3.6508e-41
000030 b5 0f 00 80 50 66 00 00 9f 0f 00 00 72 64 00 80
       -5.635e-42 3.6703e-41 5.604e-42 -3.6033e-41
000040 a8 04 00 00 9d 4f 00 80 5e 69 00 00 1c 1b 00 80
       1.67e-42 -2.856e-41 3.7799e-41 -9.725e-42
000050 7c 0f 00 80 c4 56 00 00 cd 04 00 00 e6 2e 00 80
       -5.555e-42 3.1126e-41 1.722e-42 -1.6824e-41
000060 d3 4f 00 80 bf 0f 00 80 94 0f 00 80 b5 0f 00 80
       -2.8636e-41 -5.649e-42 -5.588e-42 -5.635e-42
000070 1e 66 00 00 a3 0f 00 00 95 0f 00 80 c7 08 00 80
       3.6633e-41 5.61e-42 -5.59e-42 -3.149e-42
000080 ad 59 00 80 cc 24 00 80 5d 69 00 00 b5 56 00 80
       -3.217e-41 -1.32e-41 3.7797e-41 -3.1105e-41
000090 c1 0f 00 80 b0 0f 00 00 5c 34 00 00 ca 25 00 00
       -5.651e-42 5.628e-42 1.8783e-41 1.3556e-41
0000a0 ac 0f 00 00 a9 0f 00 80 b4 0f 00 80 ca 5a 00 80
       5.622e-42 -5.618e-42 -5.633e-42 -3.2569e-41
0000b0 f0 11 00 00 b0 0f 00 00 c8 56 00 80 ad 45 00 00
       6.435e-42 5.628e-42 -3.1131e-41 2.4995e-41
0000c0 be 0f 00 80 b0 0f 00 80 8e 0f 00 00 cb 34 00 80
       -5.647e-42 -5.628e-42 5.58e-42 -1.8939e-41
0000d0 b1 0f 00 80 b1 64 00 80 c9 56 00 00 3a 26 00 00
       -5.629e-42 -3.6121e-41 3.1133e-41 1.3713e-41
0000e0 a4 0f 00 00 79 0f 00 00 85 04 00 80 8a 0f 00 00
       5.611e-42 5.55e-42 -1.621e-42 5.574e-42
0000f0 16 66 00 00 b4 34 00 00 9e 0f 00 00 2e 20 00 80
       3.6622e-41 1.8906e-41 5.602e-42 -1.1544e-41

local_net.mul_blocks.0.mlp.fc2.weight f4 [16, 64, 1, 1]
000000 9e 0f 00 80 46 42 00 80 60 26 00 80 3e 26 00 00
       -5.602e-42 -2.3774e-41 -1.3766e-41 1.3719e-41
000010 95 0f 00 00 98 0f 00 00 ae 0f 00 00 fb 5c 00 80
       5.59e-42 5.594e-42 5.625e-42 -3.3355e-41
000020 96 4f 00 00 75 64 00 80 3b 34 00 80 02 50 00 00
       2.855e-41 -3.6037e-41 -1.8737e-41 2.8701e-41
000030 8c 0f 00 00 8b 0f 00 00 ad 0f 00 00 b8 0f 00 80
       5.577e-42 5.576e-42 5.623e-42 -5.639e-42
000040 a2 64 00 80 18 69 00 80 a7 5c 00 80 3c 05 00 00
       -3.61e-41 -3.77e-41 -3.3237e-41 1.878e-42
000050 9a 0f 00 00 24 57 00 80 d1 59 00 00 8b 0f 00 00
       5.597e-42 -3.126e-41 3.222e-41 5.576e-42
000060 99 34 00 00 90 0f 00 80 93 0f 00 80 bd 0f 00 00
       1.8868e-41 -5.583e-42 -5.587e-42 5.646e-42
000070 df 1a 00 00 3d 26 00 80 af 0f 00 80 4c 37 00 00
       9.64e-42 -1.3717e-41 -5.626e-42 1.9837e-41
000080 8b 0f 00 80 94 0f 00 80 81 26 00 80 52 37 00 00
       -5.576e-42 -5.588e-42 -1.3813e-41 1.9845e-41
000090 b3 0f 00 00 c1 0f 00 80 86 0f 00 00 68 2e 00 00
       5.632e-42 -5.651e-42 5.569e-42 1.6647e-41
0000a0 a5 0f 00 80 8a 0f 00 80 ae 0f 00 00 b5 0f 00 00
       -5.612e-42 -5.574e-42 5.625e-42 5.635e-42
0000b0 bd 5c 00 80 8a 0f 00 80 f7 4f 00 80 b1 0f 00 80
       -3.3268e-41 -5.574e-42 -2.8686e-41 -5.629e-42
0000c0 05 2a 00 80 bd 2e 00 80 b0 0f 00 00 62 37 00 00
       -1.5074e-41 -1.6767e-41 5.628e-42 1.9868e-41
0000d0 a0 0f 00 00 e2 25 00 00 10 2f 00 00 bb 25 00 00
       5.605e-42 1.359e-41 1.6883e-41 1.3535e-41
0000e0 bd 0f 00 80 b4 0f 00 00 94 59 00 80 7e 2e 00 00
       -5.646e-42 5.633e-42 -3.2135e-41 1.6678e-41
0000f0 b9 0f 00 00 9a 0f 00 80 ad 0f 00 00 f4 29 00 80
       5.64e-42 -5.597e-42 5.623e-42 -1.505e-41
000100 bd 0f 00 00 be 0f 00 00 57 04 00 00 82 0f 00 00
       5.646e-42 5.647e-42 1.557e-42 5.563e-42
000110 9c 37 00 80 8c 0f 00 00 91 0f 00 00 aa 0f 00 00
       -1.9949e-41 5.577e-42 5.584e-42 5.619e-42
000120 d9 59 00 00 73 64 00 80 57 42 00 00 7b 0f 00 00
       3.2231e-41 -3.6034e-41 2.3798e-41 5.553e-42
000130 3a 26 00 80 32 05 00 00 f0 28 00 80 bb 0f 00 00
       -1.3713e-41 1.864e-42 -1.4686e-41 5.643e-42
000140 8f 0f 00 00 8c 0f 00 00 a5 64 00 80 93 0f 00 80
       5.581e-42 5.577e-42 -3.6104e-41 -5.587e-42
000150 89 0f 00 80 80 34 00 00 19 50 00 80 ae 0f 00 80
       -5.573e-42 1.8833e-41 -2.8734e-41 -5.625e-42
000160 53 37 00 80 a9 0f 00 00 c0 0f 00 00 83 0f 00 00
       -1.9847e-41 5.618e-42 5.65e-42 5.565e-42
000170 23 5d 00 00 7f 0f 00 00 cf 65 00 80 9d 0f 00 00
       3.3411e-41 5.559e-42 -3.6522e-41 5.601e-42
000180 a8 0f 00 00 e8 41 00 80 bf 5a 00 00 6c 37 00 00
       5.616e-42 -2.3643e-41 3.2554e-41 1.9882e-41
000190 a7 0f 00 00 7e 65 00 80 9a 0f 00 80 09 66 00 80
       5.615e-42 -3.6409e-41 -5.597e-42 -3.6603e-41
0001a0 83 24 00 00 e7 41 00 80 7f 0f 00 00 71 08 00 80
       1.3098e-41 -2.3641e-41 5.559e-42 -3.028e-42
0001b0 eb 25 00 80 c7 59 00 00 aa 41 00 80 93 0f 00 00
       -1.3602e-41 3.2206e-41 -2.3556e-41 5.587e-42
0001c0 9c 4f 00 80 90 0f 00 00 4f 26 00 00 3a 53 00 80
       -2.8558e-41 5.583e-42 1.3743e-41 -2.9856e-41
0001d0 c1 0f 00 80 7d 0f 00 00 53 26 00 00 a5 21 00 00
       -5.651e-42 5.556e-42 1.3748e-41 1.207e-41
0001e0 ef 65 00 00 be 0f 00 00 93 0f 00 80 c6 4f 00 00
       3.6567e-41 5.647e-42 -5.587e-42 2.8617e-41
0001f0 c0 0f 00 80 02 26 00 80 b6 5c 00 80 7f 0f 00 00
       -5.65e-42 -1.3635e-41 -3.3258e-41 5.559e-42
000200 82 0f 00 00 b0 0f 00 80 43 50 00 00 ba 0f 00 80
       5.563e-42 -5.628e-42 2.8792e-41 -5.642e-42
000210 08 1e 00 00 bf 0f 00 00 9d 0f 00 00 7f 34 00 00
       1.0773e-41 5.649e-42 5.601e-42 1.8832e-41
000220 7e 0f 00 00 c0 64 00 00 d5 11 00 80 b0 0f 00 80
       5.558e-42 3.6142e-41 -6.397e-42 -5.628e-42
000230 89 0f 00 00 7d 64 00 00 95 0f 00 00 ab 0f 00 80
       5.573e-42 3.6048e-41 5.59e-42 -5.62e-42
000240 93 0f 00 80 94 0f 00 80 80 0f 00 00 8e 0f 00 80
       -5.587e-42 -5.588e-42 5.56e-42 -5.58e-42
000250 65 34 00 00 57 64 00 00 e9 41 00 80 7d 0f 00 00
       1.8796e-41 3.5995e-41 -2.3644e-41 5.556e-42
000260 ab 0f 00 80 92 0f 00 00 0b 1b 00 00 8f 0f 00 80
       -5.62e-42 5.586e-42 9.701e-42 -5.581e-42
000270 52 50 00 00 15 1b 00 00 0a 42 00 80 66 41 00 00
       2.8813e-41 9.715e-42 -2.369e-41 2.346e-41
000280 af 1a 00 80 4e 65 00 80 92 0f 00 00 ac 64 00 00
       -9.572e-42 -3.6341e-41 5.586e-42 3.6114e-41
000290 a5 0f 00 00 d8 04 00 00 7a 0f 00 80 80 0f 00 00
       5.612e-42 1.738e-42 -5.552e-42 5.56e-42
0002a0 ff 64 00 80 a1 0f 00 00 75 34 00 80 b7 0f 00 80
       -3.623e-41 5.607e-42 -1.8818e-41 -5.637e-42
0002b0 93 0f 00 80 ea 4f 00 00 84 0f 00 80 68 64 00 80
       -5.587e-42 2.8668e-41 -5.566e-42 -3.6019e-41
0002c0 81 0f 00 00 9f 0f 00 00 6e 53 00 80 a8 21 00 00
       5.562e-42 5.604e-42 -2.9929e-41 1.2074e-41
0002d0 81 34 00 80 b0 4f 00 80 bc 0f 00 80 b6 21 00 80
       -1.8835e-41 -2.8586e-41 -5.644e-42 -1.2093e-41
0002e0 ad 0f 00 00 bc 0f 00 00 a4 0f 00 80 28 2b 00 80
       5.623e-42 5.644e-42 -5.611e-42 -1.5482e-41
0002f0 4e 64 00 80 be 0f 00 00 82 0f 00 00 61 26 00 00
       -3.5983e-41 5.647e-42 5.563e-42 1.3768e-41
000300 b5 5a 00 80 60 50 00 80 9c 0f 00 00 80 64 00 80
       -3.254e-41 -2.8833e-41 5.6e-42 -3.6053e-41
000310 d8 64 00 80 8c 0f 00 80 d5 36 00 00 b7 0f 00 80
       -3.6176e-41 -5.577e-42 1.967e-41 -5.637e-42
000320 8e 0f 00 00 e2 4f 00 00 2e 42 00 80 96 0f 00 00
       5.58e-42 2.8657e-41 -2.3741e-41 5.591e-42
000330 9a 64 00 80 7d 0f 00 00 06 25 00 80 88 08 00 00
       -3.6089e-41 5.556e-42 -1.3282e-41 3.06e-42
000340 c2 40 00 80 13 26 00 80 b0 0f 00 80 aa 0f 00 80
       -2.3231e-41 -1.3658e-41 -5.628e-42 -5.619e-42
000350 e6 5c 00 80 2a 26 00 00 93 0f 00 80 7a 26 00 80
       -3.3326e-41 1.369e-41 -5.587e-42 -1.3803e-41
000360 ec 25 00 80 98 0f 00 00 9a 0f 00 80 b9 0f 00 80
       -1.3604e-41 5.594e-42 -5.597e-42 -5.64e-42
000370 be 07 00 00 be 0f 00 80 ad 42 00 00 18 2f 00 80
       2.777e-42 -5.647e-42 2.3919e-41 -1.6894e-41
000380 3d 64 00 80 7f 0f 00 00 91 0f 00 00 b7 56 00 80
       -3.5959e-41 5.559e-42 5.584e-42 -3.1107e-41
000390 af 24 00 00 7a 0f 00 00 a1 0f 00 00 24 26 00 00
       1.316e-41 5.552e-42 5.607e-42 1.3682e-41
0003a0 47 37 00 00 bc 0f 00 80 92 0f 00 00 80 0f 00 00
       1.983e-41 -5.644e-42 5.586e-42 5.56e-42
0003b0 8f 59 00 80 ac 0f 00 00 89 0f 00 00 b5 24 00 80
       -3.2128e-41 5.622e-42 5.573e-42 -1.3168e-41
0003c0 cf 59 00 80 1f 24 00 80 77 0f 00 80 75 26 00 80
       -3.2217e-41 -1.2958e-41 -5.548e-42 -1.3796e-41
0003d0 8d 34 00 00 bd 22 00 80 b5 0f 00 00 55 53 00 00
       1.8852e-41 -1.2462e-41 5.635e-42 2.9894e-41
0003e0 98 0f 00 00 24 66 00 80 af 0f 00 00 aa 0f 00 80
       5.594e-42 -3.6641e-41 5.626e-42 -5.619e-42
0003f0 aa 0f 00 80 7a 56 00 00 98 69 00 80 53 3c 00 00
       -5.619e-42 3.1022e-41 -3.788e-41 2.164e-41

local_net.mul_blocks.0.mlp.fc2.bias f4 [16]
000000 f7 07 00 80 1c 26 00 00 7a 5b 00 80 fd 00 00 80
       -2.857e-42 1.3671e-41 -3.2816e-41 -3.55e-43
000010 48 05 00 00 c5 10 00 80 61 05 00 80 ab 0f 00 80
       1.895e-42 -6.016e-42 -1.93e-42 -5.62e-42
000020 94 0f 00 00 22 65 00 80 b8 0f 00 80 3a 26 00 00
       5.588e-42 -3.628e-41 -5.639e-42 1.3713e-41
000030 83 0f 00 00 92 0f 00 00 f5 64 00 80 be 0f 00 00
       5.565e-42 5.586e-42 -3.6217e-41 5.647e-42

local_net.mul_blocks.1.gamma_1 f4 [1, 16, 1, 1]
000000 62 16 00 80 16 5d 00 00 a5 20 00 00 ec 0d 00 00
       -8.03e-42 3.3393e-41 1.171e-41 4.994e-42
000010 39 03 00 00 61 37 00 00 47 37 00 00 80 53 00 80
       1.156e-42 1.9866e-41 1.983e-41 -2.9954e-41
000020 e0 37 00 00 c7 40 00 80 cb 25 00 80 9e 0f 00 00
       2.0044e-41 -2.3238e-41 -1.3558e-41 5.602e-42
000030 b3 0f 00 80 d8 60 00 00 89 0f 00 00 48 26 00 80
       -5.632e-42 3.4741e-41 5.573e-42 -1.3733e-41

local_net.mul_blocks.1.gamma_2 f4 [1, 16, 1, 1]
000000 d9 54 00 00 b6 0f 00 00 fa 06 00 80 8e 59 00 80
       3.0438e-41 5.636e-42 -2.503e-42 -3.2126e-41
000010 37 31 00 00 c1 0f 00 80 57 66 00 80 4a 14 00 80
       1.7655e-41 -5.651e-42 -3.6713e-41 -7.278e-42
000020 0a 65 00 00 6a 64 00 00 be 41 00 80 c2 56 00 80
       3.6246e-41 3.6022e-41 -2.3584e-41 -3.1123e-41
000030 e9 16 00 80 78 16 00 80 a7 0f 00 00 83 0f 00 00
       -8.219e-42 -8.06e-42 5.615e-42 5.565e-42

local_net.mul_blocks.1.pos_embed.weight f4 [16, 1, 3, 3]
000000 45 7d fd b9 06 51 ef b9 ca 59 f3 b9 43 b2 54 3a
       -0.00048349253 -0.00045646 -0.0004641547 0.0008113721
000010 10 24 54 3a 22 3b 4a 3a e7 e0 43 b9 82 e2 2f b9
       0.0008092532 0.00077145 -0.00018680432 -0.00016773681
000020 02 1b 46 b9 94 84 08 37 23 39 86 37 4d 64 d3 b5
       -0.00018892813 8.1371e-06 1.6000651e-05 -1.5749916e-06
000030 e2 84 db 37 1b 7c 10 38 70 48 21 37 bd 7f 83 38
       2.6168713e-05 3.4447858e-05 9.6132135e-06 6.27036e-05
000040 45 12 9c 38 b1 9b 64 38 7e 14 6a 39 60 3a 38 3b
       7.4420626e-05 5.4504435e-05 0.00022323613 0.0028110966
000050 07 9f d3 b9 a4 4a e7 39 7d 63 46 3b f1 97 81 b8
       -0.0004036354 0.00044115365 0.0030271702 -6.1795006e-05
000060 93 b0 a7 b9 07 16 24 3b 2f c4 f6 b9 cc 86 b7 3c
       -0.0003198428 0.0025037543 -0.00047066945 0.022403143
000070 d5 fc be 3c be 7f 9d 3c ea 81 c9 3c 23 45 d5 3c
       0.02331392 0.019225951 0.02459808 0.026033944
000080 94 63 b3 3c d5 ca c4 3c c2 37 d6 3c 88 f5 b6 3c
       0.021898068 0.0240225 0.026149634 0.022333875
000090 50 13 b9 3c ba 97 ab 3c 23 57 8a 3c 45 e1 ad 3c
       0.022592217 0.020946372 0.016887253 0.021225581
0000a0 43 16 a0 3c 2f 98 81 3c d5 9b a5 3c 73 1e 9c 3c
       0.019541865 0.015819637 0.020215908 0.019057488
0000b0 d5 32 80 3c 9b a4 32 3b 06 f3 6d 3b 39 33 21 3b
       0.015649239 0.0027258757 0.0036308183 0.0024597181
0000c0 69 05 3c 3b 0e 01 73 3b 30 b8 27 3b 87 45 26 3b
       0.0028689748 0.0037079486 0.0025591962 0.0025371031
0000d0 32 aa 51 3b 9e 4e fd 3a 63 7f 21 3a b0 6a 10 3a
       0.0031992313 0.0019325798 0.00061606447 0.0005509062
0000e0 ec 2f 04 3a 4e 6d 0d 3a a2 9d f0 39 d4 0b d1 39
       0.00050425413 0.0005395011 0.00045893813 0.000398724
0000f0 d5 16 f2 39 15 f6 c4 39 bb 46 99 39 f8 2f 53 39
       0.00046174848 0.0003756738 0.00029235132 0.00020140398
000100 7f d3 50 39 ef b1 4e 39 e8 a0 c5 3a 00 e4 c3 3a
       0.00019915214 0.00019711976 0.0015077861 0.0014945269
000110 27 42 c2 3a 68 81 c7 b8 2e 09 d2 b8 cf 54 d7 b8
       0.001482074 -9.513163e-05 -0.0001001529 -0.00010267796
000120 bb 9c 0f 39 ee ed 67 39 0c a6 56 39 68 1c 34 39
       0.0001369593 0.00022118512 0.00020470488 0.0001717672
000130 53 2a 87 39 67 1d 7b 39 44 e1 2f 39 5a 49 87 39
       0.0002578074 0.00023948179 0.00016773219 0.00025803858
000140 eb c6 77 39 dd 21 b9 b9 98 ce 43 3a 5f 87 8e b9
       0.00023629858 -0.0003531118 0.00074694445 -0.0002718521
000150 cf 38 aa b9 16 fc 55 3a bb 5f 80 b9 fe cf ad b9
       -0.00032467252 0.0008162869 -0.00024485387 -0.00033152098
000160 ac b8 62 3a 97 dd 7e b9 62 5b 34 b8 b2 1d c6 37
       0.0008648734 -0.00024305876 -4.300045e-05 2.3617267e-05
000170 88 62 85 b8 e3 31 b3 38 af 77 1c 39 67 39 81 38
       -6.360287e-05 8.544677e-05 0.00014921905 6.161891e-05
000180 0c 18 e4 38 96 70 38 39 90 26 bc 38 98 9a 1a 39
       0.00010876366 0.00017589549 8.9717214e-05 0.00014744175
000190 db 1f 43 39 89 12 52 39 53 b4 22 39 2f 1c 4a 39
       0.00018608516 0.00020034066 0.000155167 0.0001927472
0001a0 5b cb 58 39 57 3c d0 37 41 ed 83 38 cb 1e a2 38
       0.00020675121 2.482363e-05 6.290759e-05 7.7304976e-05
0001b0 35 22 5c ba b7 89 d5 b9 d1 8b 17 ba ff 34 74 39
       -0.0008397431 -0.0004072913 -0.0005781027 0.00023289396
0001c0 31 e5 15 3a 36 16 b3 39 ca 93 ae b9 86 af 59 37
       0.0005718051 0.0003415809 -0.00033297978 1.2975075e-05
0001d0 79 55 88 b9 ef f5 24 3a 3a cf 38 3a 31 5e 3d 3a
       -0.00026003623 0.00062927505 0.0007049922 0.00072238134
0001e0 f9 ba 0f 3a 8f a3 22 3a 55 1b 26 3a fc dd e5 39
       0.0005482878 0.00062041817 0.000633647 0.00043843675
0001f0 23 4c 09 3a c5 8a 0a 3a 48 f2 4f 3a 1c 0e 25 3b
       0.00052374805 0.00052849605 0.0007932526 0.0025185412
000200 0f 6b 86 3a ef 8b 65 3a c5 88 2f 3b 8d 98 95 3a
       0.0010255295 0.00087565085 0.0026784402 0.0011413262
000210 d4 aa 55 3a 8f 53 31 3b 16 e3 88 3a ce 67 72 39
       0.00081507606 0.0027057861 0.0010443653 0.00023117589
000220 96 85 b2 39 0d 73 22 3a 0b 58 01 3a a8 ff 1e 3a
       0.00034050335 0.00061969535 0.0004934079 0.00060653174
000230 8a c8 6c 3a 36 27 09 3a 90 4e 28 3a 2c 6b 78 3a
       0.0009032568 0.0005231978 0.0006420398 0.0009476419

local_net.mul_blocks.1.pos_embed.bias f4 [16]
000000 7b 46 2c 3c 7f 34 a2 3a be 54 3d 3d 92 1a d7 3c
       0.010514851 0.0012375264 0.046223395 0.026257787
000010 83 4e 1d 3d 4c 17 0f 3d 53 77 b3 b8 ad f8 86 3b
       0.038404953 0.034934327 -8.557611e-05 0.004119
000020 27 48 62 3b c1 0e 72 3b 49 13 8d 3b c6 93 d4 3b
       0.003452787 0.0036935064 0.0043052775 0.0064873425
000030 d6 40 11 bc a3 07 a9 ba ea ad 90 bb f5 b1 c9 3b
       -0.008865556 -0.0012895953 -0.0044152634 0.0061552473

local_net.mul_blocks.1.norm1.alpha f4 [1, 1, 16]
000000 fd 68 00 80 7b 0f 00 80 70 24 00 80 09 5a 00 00
       -3.7663e-41 -5.553e-42 -1.3071e-41 3.2299e-41
000010 7e 64 00 00 01 05 00 00 b4 24 00 00 95 0f 00 00
       3.605e-41 1.795e-42 1.3167e-41 5.59e-42
000020 7d 0f 00 00 fc 65 00 80 7d 64 00 80 95 0f 00 00
       5.556e-42 -3.6585e-41 -3.6048e-41 5.59e-42
000030 a9 64 00 80 a8 0f 00 80 8b 0f 00 00 a0 0f 00 80
       -3.611e-41 -5.616e-42 5.576e-42 -5.605e-42

local_net.mul_blocks.1.norm1.beta f4 [1, 1, 16]
000000 f8 56 00 00 8a 0f 00 80 a5 2e 00 00 7f 0f 00 80
       3.1199e-41 -5.574e-42 1.6733e-41 -5.559e-42
000010 58 37 00 00 b0 0f 00 00 f8 56 00 00 18 53 00 80
       1.9854e-41 5.628e-42 3.1199e-41 -2.9808e-41
000020 a8 0f 00 80 85 0f 00 00 81 0f 00 00 a6 0f 00 00
       -5.616e-42 5.567e-42 5.562e-42 5.614e-42
000030 03 26 00 80 82 04 00 00 bd 0f 00 80 8c 0f 00 80
       -1.3636e-41 1.617e-42 -5.646e-42 -5.577e-42
