IAT_enhance/best_Epoch_lol.pth (torch, 427160 bytes, 132 tensors)

local_net.conv1.weight f4 [16, 3, 3, 3]
000000 42 b9 ca bd 59 15 b2 bd 4c eb 0b be 73 5a 85 3d
       -0.098986164 -0.08695478 -0.13663977 0.065113924
000010 7c 2c 20 3c 38 95 24 3d ac 84 9f 3d 1f f7 f8 3c
       0.009776231 0.04018137 0.07788977 0.030391274
000020 2d e0 f6 3d 2f 4d 25 bd 68 03 d6 3d 51 04 ce 3d
       0.12054477 -0.04035681 0.104498684 0.10059417
000030 bf eb 90 3d 01 ec cd 3d f1 fc 0b be df d2 ca 3c
       0.07076215 0.1005478 -0.13670708 0.024758754
000040 45 b1 11 3e b7 ff 6c 3c 69 92 8e bd e6 7c 1c 3c
       0.14227779 0.014465264 -0.06961519 0.0095512625
000050 ba a8 25 3e 38 72 02 bd 72 24 21 be 22 aa 81 bd
       0.16177645 -0.03184721 -0.15736559 -0.063312784
000060 5c 74 43 bd 30 ca 19 bc f6 99 ba bd 3e a6 fa 3d
       -0.04771839 -0.009386584 -0.09111397 0.122387394
000070 7f c7 e1 bb 0f 2d 57 bd b5 48 c6 bc 00 e7 5e bd
       -0.006890237 -0.052533206 -0.024204591 -0.054419518
000080 05 51 d3 bd 39 9f 01 3e 0a 0e b8 3d 05 e1 db bd
       -0.103181876 0.12658395 0.08987053 -0.107362784
000090 cd e7 8a 3d 2e 80 f7 bd 93 d5 fa 3d 8f 8d 58 3d
       0.06782494 -0.12084995 0.12247767 0.052869376
0000a0 44 43 a4 3d 86 16 9f bd 97 cc ae 3d 4a 1a 04 be
       0.080206424 -0.07767968 0.08535116 -0.12900653
0000b0 2a 33 20 bc b9 69 4d 3d 3f 19 ba bd 4f 56 b6 3d
       -0.009777823 0.050149653 -0.090868466 0.08903181
0000c0 0f 8a 37 3e b5 80 6c bd de 0b 12 3e dc f6 50 3d
       0.17923759 -0.057739932 0.1426234 0.051016673
0000d0 75 76 d4 bc 7e bd 08 3e 0c 39 0f 3e 84 b6 da 3d
       -0.025935391 0.13353536 0.13986605 0.10679343
0000e0 b1 92 08 be f2 84 6c 3c f2 73 46 be 83 7d ec ba
       -0.13337208 0.0144359935 -0.19380167 -0.0018042777
0000f0 64 20 b1 bd cf b6 1a 3d 7e 87 06 be 46 79 55 bd
       -0.08648756 0.037771996 -0.13137624 -0.05211761
000100 56 0b 1e bd fa c5 0c 3e 67 78 05 3e c3 a5 05 3e
       -0.03858503 0.13747397 0.13034211 0.13051514
000110 1a bc cc 3d a8 ce 02 3e 76 dd 83 bd c6 b5 a9 bd
       0.09996815 0.12774146 -0.06438725 -0.08286624
000120 75 90 f7 3c 15 54 29 be e8 dd af 3d f6 95 87 bd
       0.03022025 -0.16535981 0.08587247 -0.066204
000130 d0 f8 df bd 31 0b 3d bd 29 5e 18 be 0e 2a a9 bd
       -0.10936129 -0.04615325 -0.14879669 -0.082599744
000140 67 bf 14 3e 7a 90 17 3e 11 1f dc bd 07 d0 8e 3c
       0.14526139 0.14801207 -0.10748113 0.01743318
000150 00 2a 9a bd 50 1e fe 3d 75 57 76 3c 80 45 be bd
       -0.07527542 0.124081254 0.0150355 -0.092906
000160 35 35 0a 3e c9 8f 3e 3e a7 01 32 3e bc a4 63 bd
       0.1349686 0.18609537 0.17383443 -0.055577025
000170 e9 ca 9c 3c 79 67 8b bd dc ee 34 bd d2 ba f3 3d
       0.019139724 -0.06806845 -0.044173107 0.119008675
000180 ad 69 80 bc a6 62 00 3e 86 1b cb 3d 22 76 a1 bd
       -0.01567539 0.12537631 0.09917359 -0.0788386
000190 2b 3c 3e 3c 5e 4c 62 3d a1 f2 5b 3d 33 4c ab 3d
       0.011611025 0.05524861 0.053698186 0.08364143
0001a0 29 e2 0b bd 82 47 5a bd 3e 1c fa bd af 04 73 3d
       -0.03415123 -0.05329085 -0.12212418 0.05933064
0001b0 78 d9 47 3e a2 e9 68 bd 1a 69 af 3d 27 7d b2 3c
       0.19516551 -0.056863435 0.085649684 0.021788193
0001c0 33 13 31 3e 96 31 4c 3e 0f 24 32 3e f2 3b a0 3d
       0.1729248 0.1994079 0.17396568 0.07823934
0001d0 60 f4 37 3e 65 95 a7 bd e4 22 17 bc b1 1c 4f bd
       0.17964315 -0.081827916 -0.009224627 -0.05056447
0001e0 6e 1b dd bd 5c 37 8a 3d 57 3b 04 bd bf 35 d5 3d
       -0.107962474 0.0674884 -0.032283153 0.10410642
0001f0 f3 bd 39 3e 53 40 1e 3e 2c 85 ae bd 81 e6 b1 bd
       0.18138866 0.15454225 -0.08521494 -0.08686543
000200 b8 f9 48 bd 3d 5c 1b 3d f0 c8 ef bc de ba c8 3d
       -0.049066275 0.037929762 -0.02927062 0.09801267
000210 09 aa a3 bc e4 6f 04 be 94 9e 2b be 49 06 e3 3d
       -0.01997854 -0.12933308 -0.16759712 0.11085183
000220 d4 cc 0d bd 24 94 b3 bd 8b 25 18 3e 39 be 2e ba
       -0.034619167 -0.0876849 0.14858072 -0.00066659186
000230 e5 51 6b bd 9c 46 41 3c 8c 0a f1 bd 3e 13 22 3e
       -0.057451148 0.01179662 -0.1176959 0.15827653
000240 44 73 81 bd 55 9d 0a 3e 3c f4 1a be 60 ed fc 3d
       -0.06320813 0.1353658 -0.1513223 0.12349963
000250 ea 41 d3 3d a5 77 29 be 9f 8d 37 3e 64 fe 23 bc
       0.103153065 -0.16549547 0.17925118 -0.010009382
000260 cb e9 4b 3c a8 38 0e be a1 50 a9 bd 67 31 02 bd
       0.012445877 -0.138888 -0.08267332 -0.031785395
000270 02 a8 24 3e 61 c4 3f bd de 33 af bd 61 06 4a bd
       0.16079715 -0.04681814 -0.08554815 -0.04932249
000280 e1 a1 14 3e 46 bf cf bd 47 76 e4 bc b2 d1 58 3d
       0.14514877 -0.101439044 -0.02788843 0.052934356
000290 33 c0 66 3c ba 88 3a 3d b4 5e ac bd 40 0b 2e 3e
       0.01408391 0.04554055 -0.08416501 0.16996479
0002a0 ea db 36 3d 27 f6 92 bb 22 69 ef 3c 5a d6 88 bc
       0.04464332 -0.00448491 0.029224936 -0.016703773
0002b0 b0 b8 3d 3e 1c c2 9b 3c 40 c2 b2 bc 5e 20 a4 bd
       0.18527484 0.019013457 -0.021821141 -0.08013986
0002c0 f4 8f 29 be 0f 22 44 3e b6 13 1a be 9c 07 33 be
       -0.1655882 0.19153617 -0.15046582 -0.17483371
0002d0 f6 59 17 3d f1 32 9c bd 24 3e ac bb 4a 0c 1d 3e
       0.036951028 -0.07626904 -0.005256431 0.15336719
0002e0 8e 8f cc bd d4 90 28 3d f2 2f bb 3d 7c fd 46 3d
       -0.099883184 0.041153744 0.09140004 0.048581585
0002f0 4e 4b 0d 3e 98 15 16 be 82 2e a2 3d 2c a8 f5 3d
       0.13798258 -0.14656675 0.07919027 0.11994967
000300 9a 4e 4b bd 96 50 0c be 74 ee d5 bd 33 c0 27 3e
       -0.049635507 -0.13702616 -0.10445872 0.16381912
000310 e6 a9 11 3d d8 92 cc 3d c2 e3 9f bd 66 8f e9 3d
       0.03556242 0.09988946 -0.07807113 0.11404304
000320 0a c3 1e be 57 05 04 3e 92 25 59 bc 48 02 1d 3d
       -0.15504089 0.12892662 -0.013253586 0.038332254
000330 50 ad 1f be 7e 51 55 bc a5 45 13 3e a2 a6 d6 bd
       -0.15593457 -0.0130199175 0.14382036 -0.104810014
000340 2f f3 11 3d 87 eb 37 be 55 76 fd 3d 26 d4 73 bd
       0.03563231 -0.1796094 0.12376086 -0.059528492
000350 9c 53 b4 3b 15 f0 aa bd dc 70 7d bd c2 b2 17 3e
       0.005503131 -0.08346573 -0.06187521 0.14814284
000360 d0 ec 77 bd e4 cb ca 3d 85 b7 d5 bc e4 9e be bd
       -0.060528576 0.0990217 -0.026088485 -0.0930765
000370 1c 2e 86 3a e3 9a ec 3d 7b 93 ae 3d 21 e5 f2 bd
       0.001023713 0.1155298 0.085242234 -0.11860109
000380 90 5f 33 bd bd 14 b6 ba d3 0e e5 bd e9 05 7a bc
       -0.043792307 -0.0013891679 -0.11184468 -0.015260198
000390 72 2e 88 bd 4b 8d 18 be fc da 48 3e 05 c2 f7 bd
       -0.06649484 -0.14897649 0.19614786 -0.12097553
0003a0 31 46 36 bd b4 89 f2 bd 57 9d c6 bd 6a f3 f9 3c
       -0.044500533 -0.11842671 -0.09697979 0.030511577
0003b0 db dc ce bd bf 26 ac 3c 54 7b af 3d 42 20 81 bb
       -0.101007186 0.02101457 0.08568445 -0.003940613
0003c0 ff cd 9c bd c2 a6 75 3d cf e0 98 bd 9d d9 ec 3d
       -0.07656478 0.059973486 -0.07464754 0.11564944
0003d0 e5 b3 9e 3d 69 66 8c 3d 6d e0 77 3c e3 13 e2 3d
       0.07749156 0.06855471 0.015129191 0.11038949
0003e0 ba a6 21 be cc ac ce 3d 66 c0 df bd 92 23 65 3c
       -0.15786257 0.10091552 -0.10925369 0.013985531
0003f0 69 a9 60 3d 95 c6 85 bc 3f aa 9b bb 2d 23 05 be
       0.054849062 -0.016330043 -0.0047505195 -0.130017

local_net.conv1.bias f4 [16]
000000 c1 d9 44 3d 51 8d 81 bc ca 58 c5 3d fb c1 50 3d
       0.04805923 -0.015814455 0.09636076 0.050966244
000010 6a 4b 09 be 35 6c d5 bd 2e f5 af bd 34 35 1c 3d
       -0.13407674 -0.104210295 -0.08591686 0.038136676
000020 a0 a9 94 3c 78 d1 05 3e 77 8c c7 bb 77 af 10 be
       0.01814729 0.13068187 -0.0060897428 -0.14129435
000030 c1 a8 c8 bd 28 f4 41 be 19 94 0e be 2a a7 19 be
       -0.09797812 -0.18940794 -0.13923682 -0.15005174

local_net.mul_blocks.0.gamma_1 f4 [1, 16, 1, 1]
000000 f4 de f3 a4 e9 c9 bf aa 93 7a 4a a7 c9 30 00 00
       -1.0576215e-16 -3.406852e-13 -2.809958e-15 1.7501e-41
000010 62 4e 18 00 0b 7e dc 99 b0 2a 00 00 62 00 33 33
       2.23217e-39 -2.2798375e-23 1.5313e-41 4.1677033e-08
000020 2c 0d 00 80 b1 0f 00 00 ed e1 9a 93 31 2c 00 00
       -4.725e-42 5.629e-42 -3.9097845e-27 1.5853e-41
000030 9e 32 00 00 90 09 00 00 7b 20 00 80 a9 00 00 00
       1.8158e-41 3.43e-42 -1.1652e-41 2.37e-43

local_net.mul_blocks.0.gamma_2 f4 [1, 16, 1, 1]
000000 bb 66 84 a8 f7 16 00 80 4e 49 24 31 cc 0e 00 00
       -1.4699496e-14 -8.238e-42 2.390681e-09 5.308e-42
000010 7e 1d 00 00 fd f5 46 a7 89 89 37 21 c5 cd 74 36
       1.058e-41 -2.761137e-15 6.218484e-19 3.6478607e-06
000020 fe 20 00 80 af 7c 00 00 15 23 fa ae ed 1c 18 97
       -1.1835e-41 4.4728e-41 -1.13749156e-10 -4.915036e-25
000030 0e 77 d3 24 21 01 00 00 f1 e3 48 21 4f 1a d2 32
       9.170835e-17 4.05e-43 6.8064314e-19 2.4459181e-08

local_net.mul_blocks.0.pos_embed.weight f4 [16, 1, 3, 3]
000000 f0 0f 75 bb 85 fa 0e 3c a0 cd 7f bb ae 7f 45 bb
       -0.0037393533 0.008726721 -0.0039032474 -0.0030135917
000010 db 89 f2 3b 4e 53 08 bb e7 40 d3 37 3a 5e 0a 3c
       0.0074016876 -0.0020801607 2.5183383e-05 0.008445317
000020 95 93 03 bb eb 9d 48 bb 34 d2 66 3c 09 ff c1 3a
       -0.002007698 -0.0030611705 0.014088202 0.0014800738
000030 f2 df f6 b9 ce 52 85 3b da b0 10 3b ce c9 bf 3a
       -0.0004708763 0.004068709 0.0022078068 0.0014632286
000040 83 cd 03 3b 1e 70 c8 bb b3 7b 9c 3d 36 b1 b9 3d
       0.0020111508 -0.006116881 0.07640781 0.090670034
000050 a6 2f 0a bd 7b 3a 8f bb 88 3d 76 bd c6 55 dc 3b
       -0.033736847 -0.004370985 -0.060117275 0.006724092
000060 7e 43 94 3d 81 84 87 bd 5b 3a 05 bd 9d d9 f4 39
       0.072394356 -0.0661707 -0.032526355 0.0004670144
000070 21 5d 2d 3b 30 09 e1 3a d5 df 7d 3a e3 f9 5f 3a
       0.0026453214 0.0017168876 0.00096845377 0.0008544011
000080 e4 81 52 b9 ec 9d c1 ba 59 b1 92 3b 66 4f 60 3a
       -0.00020075549 -0.0014771796 0.004476708 0.0008556753
000090 b5 33 a3 3a 33 56 10 bc 2f 3f 8b bc 8b 43 2c 3c
       0.0012451323 -0.008809614 -0.016997902 0.01051415
0000a0 0f 99 ca 3a 1c db c7 bb 5a d8 18 bc ba 42 bf 38
       0.0015456992 -0.006099118 -0.009328926 9.1200185e-05
0000b0 74 a4 c7 bb a4 d5 85 3b bc 31 03 3c bb 57 49 bb
       -0.0060926024 0.004084306 0.008007463 -0.0030722457
0000c0 25 07 c3 3b 87 8a 67 3b 09 33 aa bb 2f 14 9e 3b
       0.0059517794 0.0035330371 -0.005194072 0.0048241834
0000d0 05 45 c6 ba 5b 81 e2 bb c4 37 e1 bb 8c f3 3a bc
       -0.0015126771 -0.006912393 -0.006873103 -0.011410605
0000e0 71 34 13 bc a3 59 d9 3a 7a a1 b4 3a 88 13 10 bb
       -0.008984671 0.00165825 0.0013781034 -0.0021984298
0000f0 2b a6 10 bc db fb fe bb e1 fd 2b 3b ac 0a 33 3d
       -0.00882868 -0.0077814884 0.0026243853 0.04371135
000100 d1 3b 12 3d 87 8a 15 bd 71 06 85 3d 97 9b d2 3c
       0.035701577 -0.036509063 0.06495369 0.025708957
000110 a6 59 7b 3c b4 a3 53 3d f9 d8 b6 3c ad 0d 87 3d
       0.015341198 0.05166979 0.022320257 0.06594405
000120 4d 8c f5 bd e2 0a ff bd 94 e6 9d bd 91 9f ad 3d
       -0.11989651 -0.124532476 -0.07709995 0.084777005
000130 71 84 ab bd ff fa 65 3c 88 a5 c6 bc 8f f9 9b 3d
       -0.083748706 0.014036893 -0.024248853 0.07615959
000140 f7 61 79 3c 14 31 a2 3b 68 d3 4c 3b 55 83 8c bb
       0.015221111 0.004949698 0.0031253938 -0.004288117
000150 ee f7 dc 3b d4 b5 59 3b 1d 4d 67 bb 71 c7 f1 3b
       0.0067434227 0.003321995 -0.0035293766 0.0073785116
000160 26 df 93 3b cc 6c 48 3a e4 eb 89 3c 0b 1d b4 3d
       0.0045126854 0.00076456065 0.016836114 0.08794602
000170 f2 a1 c7 3d d8 c9 c7 3d 7b b5 86 3d ad f3 15 3b
       0.097476855 0.097552955 0.065775834 0.0022880838
000180 1d 71 bf 3d cb 4c c6 3d ed a3 66 bd 81 2d 06 3c
       0.093477465 0.09682616 -0.056308676 0.00818956
000190 20 47 85 3c 9c 68 a1 3c 08 ba 5c 3c 39 79 bc 3c
       0.016269267 0.019703202 0.013472088 0.023007022
0001a0 a1 89 d0 3c 5a fd e4 3c 8e 50 02 3d 9f 12 a7 3c
       0.025456252 0.027952839 0.031815104 0.020394621
0001b0 9a f7 e9 3a c9 37 11 3c 63 17 37 3a d7 d0 a5 3a
       0.001785028 0.008863398 0.0006984381 0.001265074
0001c0 c9 9b ca 3b 40 40 bf 3b 00 c9 a6 3a 1b 58 03 3b
       0.006183122 0.0058365166 0.0012724698 0.0020041529
0001d0 a4 6f c6 3a 4b 7f 74 bc 76 40 87 bd 29 59 6e 3c
       0.0015139473 -0.014922927 -0.06604092 0.014547625
0001e0 6e 4a 92 bc 9c 49 54 bc 9e 8a 92 bc 40 36 71 3d
       -0.017857756 -0.012957003 -0.017888363 0.058889627
0001f0 5b e5 9e bc b9 93 08 bd ce d7 97 bb 14 55 8e bb
       -0.019396475 -0.033344004 -0.00463388 -0.004343638
000200 de ce bb bc 16 d2 25 bc e2 d3 fe 3b 33 8f 97 3c
       -0.02292579 -0.010120889 0.0077767232 0.0185009
000210 d4 a5 4f bc b4 0d fe bb bb 04 8a bb e5 90 1e bc
       -0.012673814 -0.0077530984 -0.0042119897 -0.0096781
000220 b2 b2 aa bb cb 0d 90 3c 61 68 12 ba 05 7f 04 bb
       -0.0052092904 0.017584702 -0.00055850117 -0.002021731
000230 55 61 9c bc e6 70 12 bd 46 4e 9d bb be 66 df bc
       -0.01908938 -0.0357522 -0.0048005907 -0.027270671

local_net.mul_blocks.0.pos_embed.bias f4 [16]
000000 6b 11 a0 3d 7f 69 cb 3d 4c 4c 02 be 69 37 29 be
       0.07815822 0.09932231 -0.12724417 -0.16525044
000010 02 ba b2 3d 79 a3 2b 3d a8 37 b5 bd 47 13 ad bd
       0.087268844 0.041903947 -0.08848506 -0.084509425
000020 80 4a a0 bc 05 ba 51 3d d9 0f 43 be ed e2 ed 3c
       -0.019566774 0.051202793 -0.19049014 0.02903887
000030 6a 3f 44 3e a0 95 36 bd 04 f8 f6 bd a4 62 e3 3d
       0.19164816 -0.044576287 -0.12059024 0.111027986

local_net.mul_blocks.0.norm1.alpha f4 [1, 1, 16]
000000 04 c3 57 3b 83 c1 57 3b 65 c1 57 3b 1a c7 57 3b
       0.0032922635 0.0032921738 0.0032921669 0.003292507
000010 bc c7 57 3b 58 c0 57 3b c5 c6 57 3b ab bf 57 3b
       0.0032925447 0.0032921042 0.0032924872 0.003292064
000020 41 ca 57 3b e1 c3 57 3b c7 b3 57 3b f8 c1 57 3b
       0.003292695 0.003292315 0.0032913552 0.003292201
000030 90 bc 57 3b 80 c4 57 3b 8e c3 57 3b f0 bf 57 3b
       0.0032918788 0.003292352 0.0032922956 0.00329208

local_net.mul_blocks.0.norm1.beta f4 [1, 1, 16]
000000 60 30 00 00 d1 7d 00 80 75 5c 00 80 48 6d 00 80
       1.7354e-41 -4.5134e-41 -3.3167e-41 -3.9203e-41
000010 fd 6c 00 00 a5 15 00 80 48 a0 00 00 18 52 00 80
       3.9098e-41 -7.765e-42 5.7498e-41 -2.945e-41
000020 fb 7c 00 80 af 1f 00 00 90 37 00 00 58 1f 00 80
       -4.4835e-41 1.1366e-41 1.9932e-41 -1.1244e-41
000030 8a 52 00 80 f2 42 00 80 48 13 00 00 9b a0 00 00
       -2.961e-41 -2.4015e-41 6.917e-42 5.7614e-41

local_net.mul_blocks.0.norm1.color f4 [16, 16]
000000 37 c3 57 3b 42 70 00 00 85 e7 00 80 b7 26 00 80
       0.0032922754 4.027e-41 -8.3054e-41 -1.3888e-41
000010 1e 0a 00 00 28 75 00 80 95 7e 00 00 fc 7b 00 80
       3.63e-42 -4.2028e-41 4.5409e-41 -4.4477e-41
000020 ad 53 00 00 80 46 00 80 a0 64 00 80 32 68 00 80
       3.0017e-41 -2.529e-41 -3.6097e-41 -3.7378e-41
000030 19 11 00 00 47 03 00 00 d0 2a 00 80 9e e8 00 80
       6.133e-42 1.176e-42 -1.5358e-41 -8.3447e-41
000040 e4 01 00 00 83 c1 57 3b 5b 66 00 00 50 1f 00 00
       6.78e-43 0.0032921738 3.6718e-41 1.1233e-41
000050 5e 4b 00 00 2f 07 00 80 20 58 00 00 43 1e 00 00
       2.7037e-41 -2.577e-42 3.1613e-41 1.0856e-41
000060 3b e4 00 80 0c 4b 00 00 7c 51 00 80 22 47 00 00
       -8.1874e-41 2.6922e-41 -2.9231e-41 2.5518e-41
000070 d9 24 00 80 31 30 00 00 dd 7e 00 00 19 07 00 80
       -1.3218e-41 1.7288e-41 4.551e-41 -2.546e-42
000080 c5 98 00 80 d9 66 00 00 65 c1 57 3b d0 1b 00 80
       -5.4803e-41 3.6895e-41 0.0032921669 -9.977e-42
000090 8d 55 00 80 7b 08 00 80 74 54 00 00 f1 06 00 80
       -3.069e-41 -3.042e-42 3.0296e-41 -2.49e-42
0000a0 60 8b 00 00 3b 66 00 00 78 6d 00 00 03 12 00 00
       4.9998e-41 3.6673e-41 3.927e-41 6.461e-42
0000b0 4c a2 00 80 77 75 00 80 66 10 00 80 0d 0a 00 80
       -5.8221e-41 -4.2138e-41 -5.883e-42 -3.606e-42
0000c0 40 66 00 80 32 15 00 80 9d 14 00 00 1a c7 57 3b
       -3.668e-41 -7.603e-42 7.395e-42 0.003292507
0000d0 cd 0e 00 00 5e 5a 00 80 b9 2c 00 80 96 8e 00 00
       5.31e-42 -3.2418e-41 -1.6043e-41 5.115e-41
0000e0 2d 25 00 80 53 01 00 80 18 2f 00 80 a2 44 00 80
       -1.3336e-41 -4.75e-43 -1.6894e-41 -2.4621e-41
0000f0 09 e8 00 80 82 46 00 80 f9 32 00 00 68 54 00 80
       -8.3239e-41 -2.5293e-41 1.8286e-41 -3.0279e-41
000100 0f 37 00 80 bc 5d 00 80 0e 22 00 00 5a 6e 00 80
       -1.9751e-41 -3.3626e-41 1.2217e-41 -3.9587e-41
000110 87 c7 57 3b f6 37 00 80 ca 62 00 80 67 07 00 00
       0.0032925324 -2.0075e-41 -3.5439e-41 2.655e-42
000120 1c e5 00 80 59 9c 00 00 82 2f 00 00 69 3d 00 80
       -8.2189e-41 5.6087e-41 1.7043e-41 -2.203e-41
000130 d9 1b 00 80 c4 6b 00 00 2f 33 00 00 ee 31 00 80
       -9.99e-42 3.8659e-41 1.8361e-41 -1.7911e-41
000140 7a 0f 00 00 5d 0d 00 00 ee 7c 00 80 55 4a 00 00
       5.552e-42 4.794e-42 -4.4816e-41 2.6665e-41
000150 8a 94 00 00 63 c0 57 3b f9 0c 00 00 80 a1 00 00
       5.3286e-41 0.0032921068 4.654e-42 5.7935e-41
000160 fb 1f 00 80 d9 63 00 00 9c a0 00 80 25 34 00 00
       -1.1472e-41 3.5819e-41 -5.7616e-41 1.8706e-41
000170 d8 1b 00 00 4c 9c 00 00 e1 56 00 00 c7 32 00 80
       9.988e-42 5.6069e-41 3.1166e-41 -1.8215e-41
000180 34 89 00 00 c5 0e 00 80 85 0f 00 00 16 e9 00 80
       4.9219e-41 -5.298e-42 5.567e-42 -8.3615e-41
000190 2a 81 00 80 f9 b2 00 80 1a c7 57 3b 28 a1 00 00
       -4.6335e-41 -6.4203e-41 0.003292507 5.7812e-41
0001a0 dd 23 00 80 b4 0e 00 00 01 25 00 00 b5 0f 00 80
       -1.2865e-41 5.274e-42 1.3275e-41 -5.635e-42
0001b0 9c 31 00 80 59 5a 00 80 9d 44 00 80 35 4d 00 00
       -1.7796e-41 -3.241e-41 -2.4614e-41 2.7697e-41
0001c0 89 14 00 80 99 ea 00 80 00 15 00 80 f6 63 00 00
       -7.367e-42 -8.4158e-41 -7.533e-42 3.5859e-41
0001d0 05 04 00 80 7e 34 00 80 b9 c8 00 00 ab bf 57 3b
       -1.442e-42 -1.883e-41 7.2006e-41 0.003292064
0001e0 8c 4a 00 80 56 33 00 00 42 e6 00 80 4b 69 00 80
       -2.6742e-41 1.8416e-41 -8.2601e-41 -3.7772e-41
0001f0 2b a3 00 80 7f 98 00 80 70 64 00 80 82 81 00 80
       -5.8534e-41 -5.4705e-41 -3.603e-41 -4.6459e-41
000200 ba 10 00 00 96 72 00 00 53 1f 00 80 df 19 00 00
       6e-42 4.1106e-41 -1.1237e-41 9.281e-42
000210 37 07 00 00 67 54 00 80 c4 0e 00 00 7e e0 00 00
       2.588e-42 -3.0278e-41 5.297e-42 8.0533e-41
000220 41 ca 57 3b e0 66 00 80 68 54 00 80 ff 65 00 00
       0.003292695 -3.6905e-41 -3.0279e-41 3.659e-41
000230 a2 30 00 80 79 89 00 00 6c 66 00 80 54 4b 00 80
       -1.7446e-41 4.9316e-41 -3.6742e-41 -2.7023e-41
000240 34 47 00 00 9f 87 00 80 49 42 00 00 bf 32 00 00
       2.5543e-41 -4.8652e-41 2.3779e-41 1.8204e-41
000250 cc 1b 00 00 46 0f 00 00 69 34 00 80 38 3b 00 80
       9.972e-42 5.479e-42 -1.8801e-41 -2.1244e-41
000260 3f 2f 00 00 e1 c3 57 3b c5 5a 00 80 05 6e 00 80
       1.6949e-41 0.003292315 -3.2562e-41 -3.9468e-41
000270 0c 3d 00 80 1f 47 00 80 5a 33 00 00 30 55 00 80
       -2.19e-41 -2.5513e-41 1.8421e-41 -3.056e-41
000280 5f 37 00 80 90 0e 00 80 b1 e8 00 80 a5 7f 00 80
       -1.9863e-41 -5.224e-42 -8.3474e-41 -4.579e-41
000290 ea 28 00 80 d4 0f 00 00 00 53 00 80 e5 51 00 00
       -1.4677e-41 5.678e-42 -2.9775e-41 2.9378e-41
0002a0 9b 0e 00 80 e8 87 00 80 d8 b3 57 3b 71 5a 00 80
       -5.24e-42 -4.8754e-41 0.0032913592 -3.2444e-41
0002b0 81 39 00 80 c7 9e 00 00 5a 12 00 00 87 1f 00 80
       -2.0629e-41 5.6959e-41 6.583e-42 -1.131e-41
0002c0 88 1c 00 80 d3 17 00 80 28 55 00 80 16 07 00 80
       -1.0235e-41 -8.547e-42 -3.0548e-41 -2.542e-42
0002d0 dc 1b 00 00 f2 56 00 80 fa 00 00 80 3a a1 00 80
       9.994e-42 -3.119e-41 -3.5e-43 -5.7837e-41
0002e0 18 85 00 00 f4 1c 00 80 7f 0c 00 80 85 c2 57 3b
       4.7745e-41 -1.0386e-41 -4.483e-42 0.003292234
0002f0 6b 13 00 80 d0 87 00 00 8d 7d 00 80 d9 03 00 00
       -6.966e-42 4.872e-41 -4.5039e-41 1.38e-42
000300 e8 09 00 00 3f 46 00 00 92 81 00 00 f2 2a 00 00
       3.554e-42 2.52e-41 4.6481e-41 1.5406e-41
000310 e8 45 00 80 b1 36 00 80 e3 88 00 00 7f 51 00 00
       -2.5078e-41 -1.962e-41 4.9106e-41 2.9235e-41
000320 65 7b 00 80 d1 56 00 00 d9 1b 00 00 73 6a 00 80
       -4.4266e-41 3.1144e-41 9.99e-42 -3.8187e-41
000330 92 bc 57 3b fb 07 00 00 92 5d 00 00 0d 00 00 00
       0.0032918793 2.863e-42 3.3567e-41 1.8e-44
000340 8a 5b 00 00 cd 5d 00 00 63 33 00 00 f7 00 00 00
       3.2838e-41 3.365e-41 1.8434e-41 3.46e-43
000350 78 57 00 00 5b 57 00 00 b3 5d 00 80 1f 53 00 80
       3.1378e-41 3.1337e-41 -3.3613e-41 -2.9818e-41
000360 2e e6 00 00 96 46 00 00 4a 07 00 00 60 21 00 80
       8.2573e-41 2.5321e-41 2.615e-42 -1.1973e-41
000370 65 88 00 80 93 c4 57 3b c5 59 00 00 f3 87 00 00
       -4.8929e-41 0.0032923564 3.2203e-41 4.877e-41
000380 c5 2f 00 00 79 2c 00 00 13 c9 00 80 83 03 00 00
       1.7136e-41 1.5954e-41 -7.2132e-41 1.26e-42
000390 1d 55 00 00 3c 21 00 80 bb 10 00 80 16 1c 00 00
       3.0533e-41 -1.1922e-41 -6.002e-42 1.0075e-41
0003a0 2f 42 00 80 ab 08 00 00 69 13 00 00 39 9c 00 00
       -2.3742e-41 3.11e-42 6.963e-42 5.6042e-41
0003b0 f6 84 00 00 97 9c 00 80 94 c3 57 3b 6e b2 00 80
       4.7697e-41 -5.6174e-41 0.003292297 -6.4009e-41
0003c0 e7 b3 00 00 3e 58 00 80 3c e8 00 80 76 3e 00 80
       6.4537e-41 -3.1655e-41 -8.331e-41 -2.2407e-41
0003d0 ff e6 00 00 d7 87 00 00 62 0f 00 80 b1 09 00 00
       8.2866e-41 4.873e-41 -5.518e-42 3.477e-42
0003e0 03 2f 00 00 04 49 00 80 4c 28 00 80 94 6a 00 80
       1.6865e-41 -2.6193e-41 -1.4456e-41 -3.8233e-41
0003f0 5b 5d 00 00 f0 64 00 00 a9 44 00 00 58 c0 57 3b
       3.349e-41 3.621e-41 2.463e-41 0.0032921042

local_net.mul_blocks.0.conv1.bias f4 [16]
000000 25 2d 00 80 11 10 00 80 49 0c 00 00 35 13 00 00
       -1.6195e-41 -5.764e-42 4.407e-42 6.89e-42
000010 1a 20 00 00 56 28 00 80 9e 21 00 00 ca 03 00 00
       1.1516e-41 -1.447e-41 1.206e-41 1.359e-42
000020 7f 10 00 80 4c 81 00 80 81 55 00 00 6a 20 00 80
       -5.918e-42 -4.6383e-41 3.0673e-41 -1.1628e-41
000030 0b 35 00 80 0c 08 00 80 43 4f 00 80 69 10 00 80
       -1.9028e-41 -2.887e-42 -2.8434e-41 -5.887e-42

local_net.mul_blocks.0.conv2.bias f4 [16]
000000 dd c3 09 a5 7e a5 98 2b a3 b3 0c a7 da 26 00 80
       -1.1949217e-16 1.0846183e-12 -1.9526284e-15 -1.3937e-41
000010 04 37 18 00 0e 5d e2 99 f5 0e 00 80 b7 8a 39 33
       2.223788e-39 -2.3405437e-23 -5.366e-42 4.319983e-08
000020 d0 0c 00 80 6c 2a 00 80 42 a2 1c 93 4c 1d 00 00
       -4.596e-42 -1.5218e-41 -1.9769967e-27 1.051e-41
000030 5e 1d 00 00 0f 23 00 80 30 15 00 80 77 29 00 00
       1.0535e-41 -1.2577e-41 -7.6e-42 1.4875e-41

local_net.mul_blocks.0.attn.bias f4 [16]
000000 19 38 00 00 3e 17 00 00 c3 2c 00 00 96 43 00 00
       2.0124e-41 8.338e-42 1.6057e-41 2.4245e-41
000010 aa 06 00 80 bf 32 00 80 33 2a 00 00 0c 09 00 80
       -2.39e-42 -1.8204e-41 1.5138e-41 -3.245e-42
000020 11 4c 00 80 7e 51 00 00 c5 18 00 80 9c 11 00 00
       -2.7287e-41 2.9234e-41 -8.886e-42 6.317e-42
000030 f4 2c 00 80 c4 31 00 80 4a 2a 00 80 fc 54 00 00
       -1.6126e-41 -1.7853e-41 -1.517e-41 3.0487e-41

local_net.mul_blocks.0.norm2.alpha f4 [1, 1, 16]
000000 7f c6 57 3b b2 c1 57 3b e4 d3 57 3b 63 c0 57 3b
       0.003292471 0.0032921848 0.0032932693 0.0032921068
000010 7e ce 57 3b 03 c6 57 3b 93 c4 57 3b 87 c7 57 3b
       0.0032929475 0.003292442 0.0032923564 0.0032925324
000020 ba a6 57 3b a0 c6 57 3b 9a e1 57 3b b7 c2 57 3b
       0.0032905773 0.0032924786 0.0032940865 0.0032922456
000030 86 bd 57 3b 3a c3 57 3b cc bb 57 3b df cb 57 3b
       0.0032919361 0.003292276 0.0032918332 0.0032927913

local_net.mul_blocks.0.norm2.beta f4 [1, 1, 16]
000000 7c 55 00 80 97 14 00 80 79 82 00 00 14 1d 00 00
       -3.0666e-41 -7.386e-42 4.6805e-41 1.0431e-41
000010 7c 50 00 80 59 86 00 80 1d 75 00 00 70 13 00 80
       -2.8872e-41 -4.8195e-41 4.2012e-41 -6.973e-42
000020 d4 0f 00 00 e4 82 00 80 f7 0f 00 00 58 09 00 80
       5.678e-42 -4.6955e-41 5.727e-42 -3.352e-42
000030 2b 6d 00 00 b1 58 00 00 16 61 00 00 d2 1b 00 00
       3.9162e-41 3.1816e-41 3.4828e-41 9.98e-42

local_net.mul_blocks.0.norm2.color f4 [16, 16]
000000 7f c6 57 3b d8 65 00 80 63 12 00 80 f0 88 00 80
       0.003292471 -3.6535e-41 -6.596e-42 -4.9124e-41
000010 73 63 00 80 fe 96 00 80 18 05 00 80 09 41 00 80
       -3.5676e-41 -5.4166e-41 -1.827e-42 -2.333e-41
000020 d7 32 00 00 aa 2c 00 00 6d 48 00 80 6d 00 00 00
       1.8238e-41 1.6022e-41 -2.5981e-41 1.53e-43
000030 ae 95 00 00 85 b3 00 80 e4 69 00 00 98 77 00 80
       5.3695e-41 -6.44e-41 3.7986e-41 -4.2902e-41
000040 2d 45 00 80 b2 c1 57 3b 53 52 00 80 94 57 00 00
       -2.4816e-41 0.0032921848 -2.9532e-41 3.1417e-41
000050 37 52 00 80 ac 83 00 80 04 97 00 00 da 09 00 80
       -2.9493e-41 -4.7235e-41 5.4174e-41 -3.534e-42
000060 79 32 00 00 4b 7a 00 00 f6 52 00 80 18 30 00 00
       1.8106e-41 4.387e-41 -2.9761e-41 1.7253e-41
000070 fb 67 00 80 5d 26 00 80 eb 87 00 00 16 49 00 80
       -3.7301e-41 -1.3762e-41 4.8758e-41 -2.6218e-41
000080 2d 33 00 80 f6 64 00 00 64 d4 57 3b 3d 07 00 80
       -1.8358e-41 3.6218e-41 0.003293299 -2.597e-42
000090 53 07 00 00 02 0c 00 00 35 77 00 00 f9 9e 00 00
       2.627e-42 4.308e-42 4.2763e-41 5.7029e-41
0000a0 90 aa 00 80 39 9c 00 00 ec 6c 00 80 0f 0f 00 00
       -6.1186e-41 5.6042e-41 -3.9074e-41 5.402e-42
0000b0 26 11 00 00 02 66 00 00 4d 5b 00 00 6a 11 00 80
       6.152e-42 3.6594e-41 3.2753e-41 -6.247e-42
0000c0 73 98 00 80 67 9c 00 00 04 4b 00 00 63 c0 57 3b
       -5.4688e-41 5.6107e-41 2.691e-41 0.0032921068
0000d0 bb 10 00 80 be 27 00 00 53 08 00 00 71 5d 00 80
       -6.002e-42 1.4257e-41 2.986e-42 -3.352e-41
0000e0 b5 56 00 00 31 88 00 00 1c 5c 00 80 bc 20 00 00
       3.1105e-41 4.8856e-41 -3.3043e-41 1.1743e-41
0000f0 af 57 00 00 b3 c8 00 00 9d 26 00 00 c0 57 00 80
       3.1455e-41 7.1997e-41 1.3852e-41 -3.1479e-41
000100 57 01 00 00 da 0a 00 80 6d a2 00 80 c7 e5 00 00
       4.8e-43 -3.893e-42 -5.8267e-41 8.2429e-41
000110 91 ce 57 3b ab 4b 00 00 5d 20 00 80 66 03 01 00
       0.003292952 2.7145e-41 -1.161e-41 9.3055e-41
000120 c9 05 00 80 b3 3e 00 80 68 8b 00 00 aa 3e 00 80
       -2.075e-42 -2.2492e-41 5.001e-41 -2.248e-41
000130 35 1e 00 00 ee 27 00 00 18 88 00 80 a3 65 00 00
       1.0836e-41 1.4324e-41 -4.8821e-41 3.646e-41
000140 ea 85 00 00 d4 77 00 80 af 1f 00 80 23 52 00 00
       4.804e-41 -4.2986e-41 -1.1366e-41 2.9465e-41
000150 17 a3 00 00 03 c6 57 3b d4 17 00 80 7b e4 00 00
       5.8506e-41 0.003292442 -8.548e-42 8.1963e-41
000160 6d 4c 00 80 c9 98 00 80 df 1b 00 00 1c 4b 00 80
       -2.7416e-41 -5.4809e-41 9.998e-42 -2.6944e-41
000170 80 13 00 80 0f 01 00 80 36 21 00 00 a4 0d 00 80
       -6.995e-42 -3.8e-43 1.1914e-41 -4.893e-42
000180 55 88 00 00 7b 3d 00 00 61 24 00 00 91 97 00 00
       4.8907e-41 2.2055e-41 1.305e-41 5.4372e-41
000190 de 7d 00 00 14 57 00 80 93 c4 57 3b 5c 1f 00 80
       4.5153e-41 -3.1238e-41 0.0032923564 -1.125e-41
0001a0 24 63 00 00 52 30 00 00 ba 09 00 80 5f 2e 00 80
       3.5565e-41 1.7334e-41 -3.489e-42 -1.6635e-41
0001b0 c4 4a 00 00 d8 11 00 80 33 19 00 80 f1 0d 00 00
       2.6821e-41 -6.401e-42 -9.04e-42 5.001e-42
0001c0 96 5a 00 80 0e 87 00 80 74 34 00 00 93 14 00 00
       -3.2496e-41 -4.8448e-41 1.8817e-41 7.38e-42
0001d0 68 01 00 00 34 19 00 00 c4 2f 00 00 87 c7 57 3b
       5.04e-43 9.041e-42 1.7135e-41 0.0032925324
0001e0 30 a2 00 00 7e 7a 00 00 9a 7d 00 80 83 5a 00 00
       5.8182e-41 4.3942e-41 -4.5057e-41 3.247e-41
0001f0 53 85 00 80 bb 63 00 00 e0 42 00 80 64 81 00 80
       -4.7828e-41 3.5777e-41 -2.399e-41 -4.6417e-41
000200 1f 4c 00 00 70 0f 00 80 6d 85 00 80 02 01 00 00
       2.7307e-41 -5.538e-42 -4.7864e-41 3.62e-43
000210 45 e9 00 80 ea 06 00 80 84 54 00 80 07 1f 00 80
       -8.3681e-41 -2.48e-42 -3.0318e-41 -1.113e-41
000220 b1 a6 57 3b 79 98 00 00 43 3b 00 00 8b 75 00 80
       0.0032905752 5.4697e-41 2.1259e-41 -4.2166e-41
000230 7c 0f 00 80 6c 26 00 00 6d 0f 00 80 d8 c7 00 80
       -5.555e-42 1.3783e-41 -5.534e-42 -7.169e-41
000240 b9 54 00 80 b9 73 00 00 71 50 00 80 c7 e8 00 80
       -3.0393e-41 4.1513e-41 -2.8857e-41 -8.3505e-41
000250 90 b0 00 80 49 0a 00 80 09 13 00 00 9b e4 00 00
       -6.3339e-41 -3.69e-42 6.829e-42 8.2008e-41
000260 75 0e 00 80 1a c7 57 3b d9 64 00 00 b9 ac 00 00
       -5.186e-42 0.003292507 3.6177e-41 6.1961e-41
000270 41 62 00 00 ff 65 00 80 0b 02 00 80 cb 1b 00 80
       3.5247e-41 -3.659e-41 -7.33e-43 -9.97e-42
000280 79 83 00 00 03 a3 00 00 e6 64 00 80 5b 4b 00 80
       4.7164e-41 5.8478e-41 -3.6196e-41 -2.7032e-41
000290 7b e5 00 80 88 7d 00 00 42 1f 00 80 65 3b 00 00
       -8.2322e-41 4.5032e-41 -1.1213e-41 2.1307e-41
0002a0 12 34 00 80 c7 87 00 80 9a e1 57 3b 36 46 00 80
       -1.868e-41 -4.8708e-41 0.0032940865 -2.5187e-41
0002b0 40 4e 00 80 cb 69 00 00 e8 17 00 00 c1 18 00 00
       -2.8071e-41 3.7951e-41 8.576e-42 8.88e-42
0002c0 50 3d 00 80 99 02 00 00 43 7c 00 00 63 b1 00 80
       -2.1995e-41 9.32e-43 4.4577e-41 -6.3634e-41
0002d0 2a 5a 00 00 84 6a 00 80 56 52 00 00 6b 03 00 80
       3.2345e-41 -3.821e-41 2.9537e-41 -1.226e-42
0002e0 ea 2c 00 00 f2 3f 00 80 f8 7f 00 00 b7 c2 57 3b
       1.6112e-41 -2.2939e-41 4.5907e-41 0.0032922456
0002f0 9c 66 00 00 bf 17 00 00 f5 64 00 00 ba 10 00 00
       3.681e-41 8.518e-42 3.6217e-41 6e-42
000300 65 5d 00 00 f9 0d 00 00 18 e8 00 00 ca 69 00 80
       3.3504e-41 5.012e-42 8.326e-41 -3.795e-41
000310 22 97 00 80 25 21 00 00 86 98 00 00 1e 11 00 80
       -5.4216e-41 1.189e-41 5.4715e-41 -6.14e-42
000320 fd 28 00 80 29 63 00 00 5a a2 00 80 7d 6a 00 80
       -1.4704e-41 3.5572e-41 -5.8241e-41 -3.8201e-41
000330 86 bd 57 3b 7a b3 00 80 1e 21 00 80 c1 48 00 80
       0.0032919361 -6.4384e-41 -1.188e-41 -2.6099e-41
000340 97 43 00 80 0a 97 00 80 1f 48 00 00 47 4b 00 80
       -2.4247e-41 -5.4183e-41 2.5872e-41 -2.7004e-41
000350 57 64 00 80 53 49 00 00 0f 70 00 00 c6 4e 00 80
       -3.5995e-41 2.6304e-41 4.0199e-41 -2.8259e-41
000360 26 ab 00 00 59 0a 00 80 6b 12 00 00 bc 74 00 80
       6.1396e-41 -3.712e-42 6.607e-42 -4.1876e-41
000370 aa e5 00 00 3a c3 57 3b 5f 33 00 80 f3 4f 00 80
       8.2388e-41 0.003292276 -1.8428e-41 -2.868e-41
000380 5e b3 00 80 de 7d 00 00 f1 0d 00 80 0f e7 00 00
       -6.4345e-41 4.5153e-41 -5.001e-42 8.2888e-41
000390 17 0e 00 80 56 01 00 80 22 0e 00 00 24 ae 00 80
       -5.054e-42 -4.79e-43 5.07e-42 -6.247e-41
0003a0 b0 28 00 80 64 52 00 00 b0 1f 00 00 f3 01 00 00
       -1.4596e-41 2.9556e-41 1.1367e-41 6.99e-43
0003b0 49 07 00 00 b4 98 00 00 cc bb 57 3b 03 53 00 00
       2.613e-42 5.478e-41 0.0032918332 2.9779e-41
0003c0 ce 5d 00 00 f1 98 00 00 5c 98 00 80 05 7d 00 00
       3.3651e-41 5.4865e-41 -5.4656e-41 4.4849e-41
0003d0 8c ea 00 80 55 42 00 00 68 13 00 80 c8 5d 00 00
       -8.414e-41 2.3795e-41 -6.962e-42 3.3642e-41
0003e0 a9 7d 00 00 7a 9c 00 00 1d 03 00 00 5f 89 00 80
       4.5078e-41 5.6133e-41 1.117e-42 -4.928e-41
0003f0 01 9c 00 80 6f ea 00 00 d9 69 00 80 06 cc 57 3b
       -5.5964e-41 8.4099e-41 -3.7971e-41 0.0032928004

local_net.mul_blocks.0.mlp.fc1.bias f4 [64]
000000 b7 7f 00 80 8d 2a 00 00 1c 2e 00 80 8c 18 00 00
       -4.5815e-41 1.5264e-41 -1.6541e-41 8.806e-42
000010 4e 23 00 80 51 26 00 00 d9 41 00 80 09 1d 00 80
       -1.2665e-41 1.3745e-41 -2.3622e-41 -1.0416e-41
000020 7c 29 00 00 a2 4a 00 00 1b 0b 00 00 11 3e 00 00
       1.4882e-41 2.6773e-41 3.984e-42 2.2265e-41
000030 25 39 00 80 77 0e 00 80 54 35 00 00 b4 54 00 80
       -2.05e-41 -5.189e-42 1.913e-41 -3.0386e-41
000040 3f 06 00 00 ed 3c 00 00 df 3e 00 00 4d 00 00 00
       2.24e-42 2.1856e-41 2.2554e-41 1.08e-43
000050 20 0e 00 00 5a 0c 00 00 6e 41 00 00 f2 31 00 00
       5.067e-42 4.431e-42 2.3472e-41 1.7917e-41
000060 80 27 00 00 23 15 00 00 0a 75 00 00 86 4c 00 80
       1.417e-41 7.582e-42 4.1986e-41 -2.7451e-41
000070 7f 5b 00 00 3e 4b 00 00 ce ce 00 80 4a 10 00 00
       3.2823e-41 2.6992e-41 -7.4188e-41 5.843e-42
000080 1f 1c 00 00 2c 26 00 00 3e 11 00 80 db 54 00 00
       1.0088e-41 1.3693e-41 -6.185e-42 3.044e-41
000090 33 0e 00 00 91 15 00 80 ba 10 00 80 cd 1a 00 80
       5.094e-42 -7.737e-42 -6e-42 -9.614e-42
0000a0 8d 47 00 80 13 25 00 80 11 33 00 80 b5 2f 00 80
       -2.5668e-41 -1.33e-41 -1.8319e-41 -1.7114e-41
0000b0 76 19 00 00 1f 35 00 80 48 6b 00 00 fe 2a 00 00
       9.134e-42 -1.9056e-41 3.8485e-41 1.5423e-41
0000c0 eb 4d 00 80 ae 02 00 00 a0 1f 00 00 9c 17 00 80
       -2.7952e-41 9.61e-43 1.1345e-41 -8.47e-42
0000d0 de 1d 00 80 95 2c 00 00 ad 0a 00 80 f2 1b 00 00
       -1.0714e-41 1.5993e-41 -3.83e-42 1.0025e-41
0000e0 41 1e 00 00 ca 4a 00 00 3b 81 00 00 6d 0e 00 80
       1.0853e-41 2.6829e-41 4.6359e-41 -5.175e-42
0000f0 d8 03 00 80 c7 1d 00 80 a3 0d 00 00 3d 36 00 80
       -1.379e-42 -1.0682e-41 4.892e-42 -1.9457e-41

local_net.mul_blocks.0.mlp.fc2.weight f4 [16, 64, 1, 1]
000000 20 3b 00 00 42 3c 00 80 98 59 00 00 31 51 00 80
       2.121e-41 -2.1616e-41 3.214e-41 -2.9126e-41
000010 65 20 00 80 ef 0d 00 80 50 a2 00 80 75 2d 00 80
       -1.1621e-41 -4.998e-42 -5.8227e-41 -1.6307e-41
000020 68 82 00 80 09 03 00 80 88 2f 00 00 8d 23 00 00
       -4.6781e-41 -1.089e-42 1.7051e-41 1.2753e-41
000030 66 08 00 80 b3 97 00 00 f2 07 00 00 40 09 00 00
       -3.013e-42 5.442e-41 2.85e-42 3.318e-42
000040 df 36 00 80 52 15 00 00 ab 3a 00 80 a6 30 00 00
       -1.9684e-41 7.648e-42 -2.1046e-41 1.7452e-41
000050 70 30 00 80 c9 0c 00 00 c2 08 00 00 4d 50 00 80
       -1.7376e-41 4.586e-42 3.142e-42 -2.8806e-41
000060 27 0f 00 00 a2 4d 00 00 c0 1a 00 80 4a 07 00 80
       5.436e-42 2.785e-41 -9.596e-42 -2.615e-42
000070 15 7b 00 00 dc 4c 00 80 3f 07 00 00 49 51 00 00
       4.4154e-41 -2.7572e-41 2.6e-42 2.916e-41
000080 9f 04 00 80 b8 0e 00 80 d8 07 00 00 b0 1d 00 80
       -1.658e-42 -5.28e-42 2.814e-42 -1.065e-41
000090 1c 35 00 00 28 20 00 00 e0 9e 00 00 e4 57 00 80
       1.9052e-41 1.1535e-41 5.6994e-41 -3.1529e-41
0000a0 39 2d 00 80 88 61 00 80 fe 0e 00 00 e9 2a 00 00
       -1.6223e-41 -3.4988e-41 5.378e-42 1.5393e-41
0000b0 78 27 00 80 7e 1b 00 00 cb 48 00 80 71 02 00 80
       -1.4159e-41 9.862e-42 -2.6113e-41 -8.76e-43
0000c0 c3 11 00 80 34 0f 00 00 86 54 00 80 05 3e 00 00
       -6.372e-42 5.454e-42 -3.0321e-41 2.2248e-41
0000d0 3d 02 00 80 98 51 00 80 3c 55 00 80 0c 58 00 80
       -8.03e-43 -2.927e-41 -3.0576e-41 -3.1585e-41
0000e0 fc 21 00 00 af 08 00 80 d9 12 00 00 42 24 00 80
       1.2191e-41 -3.115e-42 6.761e-42 -1.3007e-41
0000f0 37 27 00 00 f0 14 00 80 b0 58 00 00 9a 15 00 00
       1.4068e-41 -7.511e-42 3.1815e-41 7.749e-42
000100 a7 41 00 80 86 07 00 00 fd 21 00 00 8d 66 00 00
       -2.3552e-41 2.699e-42 1.2193e-41 3.6788e-41
000110 09 0c 00 80 5a 7a 00 80 e1 07 00 00 f8 64 00 00
       -4.317e-42 -4.3891e-41 2.826e-42 3.6221e-41
000120 f6 08 00 00 11 58 00 00 59 04 00 80 60 2e 00 80
       3.215e-42 3.1592e-41 -1.56e-42 -1.6636e-41
000130 0c 13 00 80 10 15 00 00 be 24 00 80 b9 1c 00 00
       -6.833e-42 7.556e-42 -1.318e-41 1.0304e-41
000140 73 1d 00 00 b9 23 00 00 ca 45 00 80 b4 33 00 80
       1.0564e-41 1.2815e-41 -2.5036e-41 -1.8548e-41
000150 80 c5 00 80 29 4c 00 80 74 38 00 80 0c 0b 00 80
       -7.085e-41 -2.7321e-41 -2.0252e-41 -3.963e-42
000160 e0 7e 00 80 df 16 00 80 9b 56 00 80 5d 75 00 00
       -4.5514e-41 -8.205e-42 -3.1068e-41 4.2102e-41
000170 ff 59 00 00 84 31 00 80 83 64 00 80 10 38 00 00
       3.2285e-41 -1.7763e-41 -3.6057e-41 2.0111e-41
000180 a0 2f 00 80 38 27 00 00 e9 53 00 00 ab 70 00 00
       -1.7085e-41 1.4069e-41 3.0101e-41 4.0418e-41
000190 7c 2a 00 80 77 39 00 80 23 24 00 80 92 68 00 80
       -1.524e-41 -2.0615e-41 -1.2963e-41 -3.7513e-41
0001a0 02 41 00 80 2b 2c 00 00 9d 50 00 00 c1 3b 00 00
       -2.332e-41 1.5844e-41 2.8919e-41 2.1436e-41
0001b0 b8 16 00 00 6c 1e 00 80 f8 2d 00 80 1a 64 00 80
       8.15e-42 -1.0913e-41 -1.649e-41 -3.591e-41
0001c0 90 05 00 00 46 36 00 00 a9 60 00 00 4e 67 00 80
       1.995e-42 1.947e-41 3.4675e-41 -3.7059e-41
0001d0 bf 1d 00 00 3c 04 00 80 7e 53 00 80 e4 18 00 00
       1.0671e-41 -1.519e-42 -2.9951e-41 8.929e-42
0001e0 24 23 00 00 13 49 00 80 2c 54 00 00 0e 0a 00 80
       1.2606e-41 -2.6214e-41 3.0195e-41 -3.607e-42
0001f0 cb 27 00 80 9b 58 00 80 e9 07 00 80 ae 78 00 00
       -1.4275e-41 -3.1786e-41 -2.838e-42 4.3292e-41
000200 de 12 00 00 09 07 00 00 cf 31 00 80 eb 75 00 00
       6.768e-42 2.524e-42 -1.7868e-41 4.2301e-41
000210 10 43 00 80 f9 4b 00 80 9f 10 00 80 d4 14 00 00
       -2.4057e-41 -2.7254e-41 -5.963e-42 7.472e-42
000220 a0 0b 00 80 b2 54 00 80 2c 33 00 00 1f 2b 00 00
       -4.17e-42 -3.0383e-41 1.8357e-41 1.5469e-41
000230 93 40 00 80 d2 0e 00 00 b2 52 00 00 06 1f 00 80
       -2.3165e-41 5.317e-42 2.9665e-41 -1.1129e-41
000240 11 38 00 00 80 07 00 00 92 53 00 00 e4 09 00 80
       2.0113e-41 2.69e-42 2.998e-41 -3.548e-42
000250 ee 47 00 80 4f 7e 00 00 73 4c 00 00 e0 0d 00 80
       -2.5804e-41 4.5311e-41 2.7425e-41 -4.977e-42
000260 15 2b 00 80 70 31 00 00 5b 04 00 80 d4 23 00 80
       -1.5455e-41 1.7735e-41 -1.562e-42 -1.2853e-41
000270 e6 55 00 80 86 51 00 00 e4 54 00 00 84 01 00 80
       -3.0815e-41 2.9245e-41 3.0453e-41 -5.44e-43
000280 b9 19 00 00 50 01 00 00 5f 2e 00 80 c2 04 00 00
       9.228e-42 4.71e-43 -1.6635e-41 1.707e-42
000290 ec 21 00 80 1f 58 00 80 fa 16 00 00 c2 2e 00 00
       -1.2169e-41 -3.1612e-41 8.242e-42 1.6774e-41
0002a0 06 05 00 80 2e 1e 00 80 22 50 00 80 ae 17 00 80
       -1.802e-42 -1.0826e-41 -2.8746e-41 -8.495e-42
0002b0 c0 2e 00 00 63 01 00 00 05 58 00 00 36 08 00 80
       1.6771e-41 4.97e-43 3.1575e-41 -2.946e-42
0002c0 1b 70 00 80 e9 76 00 80 b1 41 00 00 21 9a 00 80
       -4.0216e-41 -4.2657e-41 2.3566e-41 -5.5291e-41
0002d0 70 17 00 00 1d 5f 00 80 0e 54 00 80 a3 75 00 00
       8.408e-42 -3.412e-41 -3.0153e-41 4.22e-41
0002e0 4c 4d 00 00 7c 16 00 80 e7 30 00 80 e8 00 00 80
       2.7729e-41 -8.066e-42 -1.7543e-41 -3.25e-43
0002f0 ac 09 00 00 51 19 00 00 68 1e 00 00 21 40 00 00
       3.47e-42 9.082e-42 1.0908e-41 2.3005e-41
000300 7e 36 00 80 69 34 00 80 b4 0d 00 80 e6 12 00 00
       -1.9548e-41 -1.8801e-41 -4.916e-42 6.78e-42
000310 b7 08 00 00 b6 39 00 00 bc 51 00 80 6d 3d 00 80
       3.126e-42 2.0703e-41 -2.9321e-41 -2.2035e-41
000320 ce 1b 00 00 91 15 00 00 7a 4d 00 00 e5 16 00 80
       9.974e-42 7.737e-42 2.7793e-41 -8.213e-42
000330 1d 30 00 00 9e 45 00 00 8e 3e 00 80 8a 52 00 80
       1.726e-41 2.4974e-41 -2.244e-41 -2.961e-41
000340 99 29 00 80 e0 9c 00 80 1e 29 00 00 a6 3c 00 80
       -1.4922e-41 -5.6276e-41 1.475e-41 -2.1757e-41
000350 31 4e 00 00 ee 6a 00 80 49 3f 00 00 08 2c 00 00
       2.805e-41 -3.8359e-41 2.2702e-41 1.5795e-41
000360 95 7c 00 00 e3 73 00 80 88 28 00 00 2f 59 00 00
       4.4692e-41 -4.1572e-41 1.454e-41 3.1993e-41
000370 1b 93 00 80 87 03 00 00 33 19 00 00 53 0a 00 80
       -5.2771e-41 1.265e-42 9.04e-42 -3.704e-42
000380 d2 0b 00 80 1c 29 00 00 63 86 00 00 0e 31 00 80
       -4.24e-42 1.4747e-41 4.8209e-41 -1.7598e-41
000390 8e 60 00 00 4c 1f 00 80 4a 23 00 80 01 3d 00 00
       3.4637e-41 -1.1227e-41 -1.266e-41 2.1884e-41
0003a0 41 87 00 80 cb 19 00 00 91 3e 00 80 cf 05 00 80
       -4.852e-41 9.253e-42 -2.2445e-41 -2.084e-42
0003b0 4f 4f 00 00 3e 0d 00 00 4c 0a 00 80 af 0e 00 80
       2.845e-41 4.75e-42 -3.694e-42 -5.267e-42
0003c0 e9 6b 00 00 b8 4f 00 00 4b 1a 00 00 90 14 00 00
       3.8711e-41 2.8598e-41 9.432e-42 7.376e-42
0003d0 0f 03 00 80 ea 31 00 80 14 2a 00 00 d7 15 00 80
       -1.097e-42 -1.7906e-41 1.5095e-41 -7.835e-42
0003e0 e3 23 00 80 eb 26 00 80 9a 35 00 00 ac 10 00 00
       -1.2874e-41 -1.3961e-41 1.9229e-41 5.981e-42
0003f0 f1 0b 00 00 9b 5d 00 80 66 6c 00 80 ff 2a 00 00
       4.284e-42 -3.358e-41 -3.8886e-41 1.5424e-41

local_net.mul_blocks.0.mlp.fc2.bias f4 [16]
000000 03 4b a3 28 1d 0b 00 80 36 6e 23 31 b5 19 00 80
       1.8129166e-14 -3.987e-42 2.378227e-09 -9.222e-42
000010 62 1e 00 00 9d ae 45 a7 2c db 4d a2 33 07 77 36
       1.09e-41 -2.74339e-15 -2.789871e-18 3.6810059e-06
000020 aa 00 00 00 8d 41 00 80 49 cb 0e af 2a d3 5c 95
       2.38e-43 -2.3515e-41 -1.2987046e-10 -4.4595225e-26
000030 b9 e6 d2 a4 56 5f 00 80 d3 71 54 a1 ab c2 d4 32
       -9.146384e-17 -3.42e-41 -7.197904e-19 2.4768573e-08

local_net.mul_blocks.1.gamma_1 f4 [1, 16, 1, 1]
000000 00 15 00 00 9f 1e 00 80 70 e7 7b ac e2 10 00 00
       7.533e-42 -1.0985e-41 -3.579772e-12 6.056e-42
000010 6e 3f f9 b7 b5 72 f2 a8 28 0d 00 00 6e 21 ab a4
       -2.971265e-05 -2.6917143e-14 4.72e-42 -7.421606e-17
000020 45 34 00 80 74 16 00 80 ad 06 17 b3 df 7e 43 0e
       -1.8751e-41 -8.055e-42 -3.51635e-08 2.4096692e-30
000030 79 04 00 80 2d 23 00 80 e3 09 00 80 53 66 b3 1c
       -1.604e-42 -1.2619e-41 -3.547e-42 1.1871677e-21

local_net.mul_blocks.1.gamma_2 f4 [1, 16, 1, 1]
000000 dc 50 00 80 d0 07 00 00 69 ae 76 99 b0 04 00 80
       -2.9007e-41 2.803e-42 -1.2753124e-23 -1.682e-42
000010 65 7d bc a4 1c 57 8d b1 94 b6 82 b5 7c 4e a6 2d
       -8.174443e-17 -4.1135433e-09 -9.738892e-07 1.8906869e-11
000020 5b 12 00 00 be 1b 00 00 ca 68 8c 91 85 24 89 25
       6.585e-42 9.952e-42 -2.2152687e-28 2.3790458e-16
000030 61 86 97 ad cf 85 d8 28 4f 19 6e a8 4d e6 4c 38
       -1.7226389e-11 2.4038848e-14 -1.3217142e-14 4.8851874e-05

local_net.mul_blocks.1.pos_embed.weight f4 [16, 1, 3, 3]
000000 0e 97 db 38 94 82 86 3c 7f 4c 90 ba 25 73 04 3a
       0.0001047087 0.016419686 -0.0011009126 0.0005052558
000010 f9 dc 5f 3c 56 36 08 bb a5 10 b5 3b 3c 3b 8a 3c
       0.013663524 -0.002078434 0.005525666 0.016873948
000020 14 3c cd 39 1b 61 aa bb 18 51 d6 3b ee 9b e1 39
       0.0003914541 -0.005199564 0.006540429 0.0004303152
000030 9d 17 2d bb 6a 73 a4 3b e9 e8 37 39 37 03 7e 39
       -0.002641178 0.0050186412 0.00017539006 0.00024224525
000040 6e e7 80 3b a5 f9 1f bb c3 af 2b 3d 76 a1 9d bd
       0.0039338386 -0.0024410274 0.041915666 -0.07696812
000050 c3 b1 80 bd c3 d2 42 bd 8c d8 63 3c 6b e7 d4 bc
       -0.06283905 -0.04756428 0.013906609 -0.025989255
000060 fa 19 69 bd 17 7e ba bd 2d 60 ba 3d 1c ae d0 bd
       -0.05690954 -0.09106081 0.09100375 -0.10189459
000070 46 61 03 3d 88 41 0a 3d 58 61 4e bd 64 3f 16 bd
       0.03207519 0.0337539 -0.050385803 -0.036681548
000080 00 be 09 bd 30 a3 8e 3d c5 2b 10 3d 90 62 e6 bc
       -0.033628464 0.06964719 0.035197992 -0.02812317
000090 b3 1c b5 b9 02 ca 17 3b a2 5d ce bb bd aa b2 bb
       -0.00034544393 0.0023161178 -0.006297783 -0.0054524825
0000a0 6a 74 52 3b 5d 30 02 bc 38 60 3f bc ab aa 77 ba
       0.0032112845 -0.007946101 -0.011680655 -0.0009447734
0000b0 33 cc 64 bb d7 0e 85 bb 45 19 cd 3b c6 3d 0a bc
       -0.0034911751 -0.004060607 0.006259116 -0.0084375795
0000c0 10 53 28 3a a9 83 0e 3c 8d f4 02 bc 72 fd 53 3a
       0.00064210687 0.008698382 -0.007992876 0.00080867775
0000d0 3a 92 dc 3a 65 59 20 bc 82 82 94 bc 7b 21 8f bd
       0.0016828247 -0.009786938 -0.018128637 -0.06988808
0000e0 9c 3f 8b bd f6 14 4c 3d 5b 00 a3 3b 55 9f f6 bc
       -0.06799242 0.049824677 0.0049744076 -0.030105272
0000f0 26 5d 40 bd 5e 04 e4 3c 57 ab 2c 3d 95 d8 80 bd
       -0.046963833 0.027834114 0.04215559 -0.0629131
000100 b6 da bd bc 95 da ab bd eb 8a ab bd 76 4b 7c 3d
       -0.023175579 -0.083913006 -0.08376106 0.061595403
000110 96 4b 38 bd b6 86 5f bb 7b 58 f0 3d d8 5b 59 3d
       -0.04499396 -0.0034107394 0.11735626 0.053066105
000120 6a 4c 61 bd 80 5c 8d 3d 64 6f b0 bd 1e ce 1d be
       -0.055004515 0.069024086 -0.08614996 -0.15410659
000130 f7 c4 2e bd 34 4a 9c bd 45 fb ad 3d 9a 17 17 bc
       -0.04266831 -0.076313406 0.084951915 -0.009221936
000140 ce 7d 30 bd 5e 20 c8 3b 49 03 91 3b d7 33 07 bb
       -0.043088727 0.006107374 0.0044254404 -0.0020630264
000150 0b 28 17 3c 36 d9 c7 3b e3 90 a3 35 5a c2 13 3c
       0.009225856 0.0060988916 1.2186614e-06 0.009018505
000160 ea d5 d1 3b e0 5d 64 3b 1c 52 0a be 67 f4 3a be
       0.0064036744 0.0034845993 -0.13507885 -0.18257295
000170 7c 9b 77 bd e9 9c 87 be 3d 03 1a be c9 67 06 be
       -0.060451016 -0.264869 -0.15040298 -0.13125528
000180 c7 08 fc bd fa 73 9e bd 07 e4 d5 bd 52 7b 0b 3c
       -0.12306362 -0.077369645 -0.104438834 0.008513289
000190 0c 11 72 3c d9 23 89 3c 44 f9 56 3c 87 2a 9b 3c
       0.014774572 0.016740726 0.013120953 0.018941177
0001a0 a0 97 a1 3c 91 9a d6 3c f6 fb dc 3c ce fa 95 3c
       0.01972562 0.02619675 0.026975613 0.01830807
0001b0 70 a7 94 bc c2 27 36 3a 86 fd 52 3c 63 20 cb 3c
       -0.018146247 0.00069486734 0.0128778275 0.024795717
0001c0 fb 0c 85 3c a2 2f e4 3c 3a 8d 11 3c 3b 2d f2 bb
       0.016241541 0.027854744 0.008883769 -0.007390646
0001d0 76 5d c9 3b 8e b1 74 3c cd b3 ef bc f9 d6 76 bd
       0.0061451746 0.01493491 -0.02926054 -0.060263608
0001e0 05 13 07 3d d2 3b 6f bd 1f 00 95 3b 83 5b 43 3b
       0.032977123 -0.05840666 0.0045471336 0.0029809184
0001f0 fd 87 e6 bc ee 45 23 bc 2f aa a1 bc a2 a7 c4 bc
       -0.028141016 -0.009965403 -0.01973447 -0.024005715
000200 47 00 2b bd 32 3c 02 3c b2 81 da 3c a2 5e 06 3c
       -0.04174831 0.007948922 0.026673172 0.008201273
000210 0b 29 37 bc 90 7d 11 3a 5b 26 ce bc 2b 92 51 bd
       -0.011179219 0.00055500213 -0.025164774 -0.051164787
000220 d0 09 74 bc c7 52 1b bd 5d 44 60 3c eb e7 2a bd
       -0.014894918 -0.03792074 0.013688174 -0.04172508
000230 16 43 ff 3d 01 52 a8 bd 39 25 0a be ae aa 00 be
       0.124639675 -0.08218766 -0.13490762 -0.12565109

local_net.mul_blocks.1.pos_embed.bias f4 [16]
000000 04 f0 18 be b6 72 09 3d 68 00 06 3d d7 27 5a 3e
       -0.14935309 0.033556662 0.03271523 0.2130426
000010 2f 3b 96 3d 05 81 0b bd 9f c7 5d bd 0c 06 cd 3d
       0.07335507 -0.03405859 -0.05414545 0.10010919
000020 d8 63 d0 3d 17 c1 c3 bc dc b6 3e be ff 9d 9c 3b
       0.10175294 -0.023895783 -0.18624443 0.004779577
000030 69 4e fa 3d 5f da 88 3d 6a 35 1b 3e 20 ee 00 3e
       0.12221987 0.06682276 0.15157095 0.12590837

local_net.mul_blocks.1.norm1.alpha f4 [1, 1, 16]
000000 b6 c9 57 3b d7 d5 57 3b 6b c6 57 3b 4b c4 57 3b
       0.0032926626 0.0032933855 0.0032924663 0.0032923396
000010 cb f0 57 3b ac cc 57 3b f5 bc 57 3b f7 cf 57 3b
       0.003294992 0.003292839 0.0032919024 0.0032930353
000020 ed dc 57 3b f6 bd 57 3b e5 e4 57 3b d7 c1 57 3b
       0.0032938079 0.0032919622 0.0032942828 0.0032921934
000030 81 b1 57 3b 03 c6 57 3b 1f b7 57 3b 87 cc 57 3b
       0.0032912197 0.003292442 0.0032915545 0.0032928304

local_net.mul_blocks.1.norm1.beta f4 [1, 1, 16]
000000 1e 72 00 00 f1 40 00 00 67 1f 00 00 6c 15 00 80
       4.0938e-41 2.3297e-41 1.1265e-41 -7.685e-42
000010 57 c1 00 00 97 61 00 80 cf 9c 00 00 3f 69 00 80
       6.9357e-41 -3.5009e-41 5.6252e-41 -3.7755e-41
000020 c0 2e 00 80 15 02 00 80 d4 32 00 80 3a 7c 00 80
       -1.6771e-41 -7.47e-43 -1.8234e-41 -4.4564e-41
000030 f3 1a 00 80 80 c9 00 80 a5 4e 00 80 75 99 00 00
       -9.668e-42 -7.2285e-41 -2.8212e-41 5.505e-41
